ir_version: 7
producer_name: "pytorch"
producer_version: "2.0.1"
graph {
  node {
    input: "state_encoder.conv1.bias"
    output: "state_encoder.conv2.bias"
    name: "Identity_0"
    op_type: "Identity"
  }
  node {
    input: "x_dict"
    output: "/state_encoder/conv1/Shape_output_0"
    name: "/state_encoder/conv1/Shape"
    op_type: "Shape"
  }
  node {
    output: "/state_encoder/conv1/Constant_output_0"
    name: "/state_encoder/conv1/Constant"
    op_type: "Constant"
    attribute {
      name: "value"
      t {
        dims: 1
        data_type: 7
        raw_data: "\000\000\000\000\000\000\000\000"
      }
      type: TENSOR
    }
  }
  node {
    output: "/state_encoder/conv1/Constant_1_output_0"
    name: "/state_encoder/conv1/Constant_1"
    op_type: "Constant"
    attribute {
      name: "value"
      t {
        dims: 1
        data_type: 7
        raw_data: "\376\377\377\377\377\377\377\377"
      }
      type: TENSOR
    }
  }
  node {
    output: "/state_encoder/conv1/Constant_2_output_0"
    name: "/state_encoder/conv1/Constant_2"
    op_type: "Constant"
    attribute {
      name: "value"
      t {
        dims: 1
        data_type: 7
        raw_data: "\377\377\377\377\377\377\377\377"
      }
      type: TENSOR
    }
  }
  node {
    input: "/state_encoder/conv1/Shape_output_0"
    input: "/state_encoder/conv1/Constant_1_output_0"
    input: "/state_encoder/conv1/Constant_2_output_0"
    input: "/state_encoder/conv1/Constant_output_0"
    output: "/state_encoder/conv1/Slice_output_0"
    name: "/state_encoder/conv1/Slice"
    op_type: "Slice"
  }
  node {
    output: "/state_encoder/conv1/Constant_3_output_0"
    name: "/state_encoder/conv1/Constant_3"
    op_type: "Constant"
    attribute {
      name: "value"
      t {
        dims: 1
        data_type: 7
        raw_data: "\000\000\000\000\000\000\000\000"
      }
      type: TENSOR
    }
  }
  node {
    input: "/state_encoder/conv1/Slice_output_0"
    input: "/state_encoder/conv1/Constant_3_output_0"
    output: "/state_encoder/conv1/Squeeze_output_0"
    name: "/state_encoder/conv1/Squeeze"
    op_type: "Squeeze"
  }
  node {
    output: "/state_encoder/conv1/Constant_4_output_0"
    name: "/state_encoder/conv1/Constant_4"
    op_type: "Constant"
    attribute {
      name: "value"
      t {
        data_type: 7
        raw_data: "\001\000\000\000\000\000\000\000"
      }
      type: TENSOR
    }
  }
  node {
    input: "edge_attr_dict"
    output: "/state_encoder/conv1/Shape_1_output_0"
    name: "/state_encoder/conv1/Shape_1"
    op_type: "Shape"
  }
  node {
    output: "/state_encoder/conv1/Constant_5_output_0"
    name: "/state_encoder/conv1/Constant_5"
    op_type: "Constant"
    attribute {
      name: "value"
      t {
        data_type: 7
        raw_data: "\001\000\000\000\000\000\000\000"
      }
      type: TENSOR
    }
  }
  node {
    input: "/state_encoder/conv1/Shape_1_output_0"
    input: "/state_encoder/conv1/Constant_5_output_0"
    output: "/state_encoder/conv1/Gather_output_0"
    name: "/state_encoder/conv1/Gather"
    op_type: "Gather"
    attribute {
      name: "axis"
      i: 0
      type: INT
    }
  }
  node {
    output: "onnx::Unsqueeze_46"
    name: "Constant_12"
    op_type: "Constant"
    attribute {
      name: "value"
      t {
        dims: 1
        data_type: 7
        raw_data: "\000\000\000\000\000\000\000\000"
      }
      type: TENSOR
    }
  }
  node {
    input: "/state_encoder/conv1/Gather_output_0"
    input: "onnx::Unsqueeze_46"
    output: "/state_encoder/conv1/Unsqueeze_output_0"
    name: "/state_encoder/conv1/Unsqueeze"
    op_type: "Unsqueeze"
  }
  node {
    input: "/state_encoder/conv1/Unsqueeze_output_0"
    output: "/state_encoder/conv1/Concat_output_0"
    name: "/state_encoder/conv1/Concat"
    op_type: "Concat"
    attribute {
      name: "axis"
      i: 0
      type: INT
    }
  }
  node {
    input: "/state_encoder/conv1/Concat_output_0"
    output: "/state_encoder/conv1/ConstantOfShape_output_0"
    name: "/state_encoder/conv1/ConstantOfShape"
    op_type: "ConstantOfShape"
    attribute {
      name: "value"
      t {
        dims: 1
        data_type: 1
        raw_data: "\000\000\200?"
      }
      type: TENSOR
    }
  }
  node {
    output: "/state_encoder/conv1/Constant_6_output_0"
    name: "/state_encoder/conv1/Constant_6"
    op_type: "Constant"
    attribute {
      name: "value"
      t {
        data_type: 7
        raw_data: "\000\000\000\000\000\000\000\000"
      }
      type: TENSOR
    }
  }
  node {
    input: "edge_attr_dict"
    input: "/state_encoder/conv1/Constant_6_output_0"
    output: "/state_encoder/conv1/Gather_1_output_0"
    name: "/state_encoder/conv1/Gather_1"
    op_type: "Gather"
    attribute {
      name: "axis"
      i: 0
      type: INT
    }
  }
  node {
    input: "edge_attr_dict"
    input: "/state_encoder/conv1/Constant_4_output_0"
    output: "/state_encoder/conv1/Gather_2_output_0"
    name: "/state_encoder/conv1/Gather_2"
    op_type: "Gather"
    attribute {
      name: "axis"
      i: 0
      type: INT
    }
  }
  node {
    output: "/state_encoder/conv1/Constant_7_output_0"
    name: "/state_encoder/conv1/Constant_7"
    op_type: "Constant"
    attribute {
      name: "value"
      t {
        dims: 1
        data_type: 7
        raw_data: "\377\377\377\377\377\377\377\377"
      }
      type: TENSOR
    }
  }
  node {
    input: "/state_encoder/conv1/Gather_2_output_0"
    input: "/state_encoder/conv1/Constant_7_output_0"
    output: "/state_encoder/conv1/Reshape_output_0"
    name: "/state_encoder/conv1/Reshape"
    op_type: "Reshape"
    attribute {
      name: "allowzero"
      i: 0
      type: INT
    }
  }
  node {
    input: "/state_encoder/conv1/ConstantOfShape_output_0"
    output: "/state_encoder/conv1/Shape_2_output_0"
    name: "/state_encoder/conv1/Shape_2"
    op_type: "Shape"
  }
  node {
    input: "/state_encoder/conv1/Reshape_output_0"
    input: "/state_encoder/conv1/Shape_2_output_0"
    output: "/state_encoder/conv1/Expand_output_0"
    name: "/state_encoder/conv1/Expand"
    op_type: "Expand"
  }
  node {
    output: "onnx::Unsqueeze_57"
    name: "Constant_23"
    op_type: "Constant"
    attribute {
      name: "value"
      t {
        dims: 1
        data_type: 7
        raw_data: "\000\000\000\000\000\000\000\000"
      }
      type: TENSOR
    }
  }
  node {
    input: "/state_encoder/conv1/Squeeze_output_0"
    input: "onnx::Unsqueeze_57"
    output: "/state_encoder/conv1/Unsqueeze_1_output_0"
    name: "/state_encoder/conv1/Unsqueeze_1"
    op_type: "Unsqueeze"
  }
  node {
    input: "/state_encoder/conv1/Unsqueeze_1_output_0"
    output: "/state_encoder/conv1/Concat_1_output_0"
    name: "/state_encoder/conv1/Concat_1"
    op_type: "Concat"
    attribute {
      name: "axis"
      i: 0
      type: INT
    }
  }
  node {
    input: "/state_encoder/conv1/Concat_1_output_0"
    output: "/state_encoder/conv1/ConstantOfShape_1_output_0"
    name: "/state_encoder/conv1/ConstantOfShape_1"
    op_type: "ConstantOfShape"
    attribute {
      name: "value"
      t {
        dims: 1
        data_type: 1
        raw_data: "\000\000\000\000"
      }
      type: TENSOR
    }
  }
  node {
    input: "/state_encoder/conv1/ConstantOfShape_1_output_0"
    output: "/state_encoder/conv1/Shape_3_output_0"
    name: "/state_encoder/conv1/Shape_3"
    op_type: "Shape"
  }
  node {
    input: "/state_encoder/conv1/Shape_3_output_0"
    output: "/state_encoder/conv1/ConstantOfShape_2_output_0"
    name: "/state_encoder/conv1/ConstantOfShape_2"
    op_type: "ConstantOfShape"
    attribute {
      name: "value"
      t {
        dims: 1
        data_type: 1
        raw_data: "\000\000\000\000"
      }
      type: TENSOR
    }
  }
  node {
    input: "/state_encoder/conv1/ConstantOfShape_2_output_0"
    input: "/state_encoder/conv1/Expand_output_0"
    input: "/state_encoder/conv1/ConstantOfShape_output_0"
    output: "/state_encoder/conv1/ScatterElements_output_0"
    name: "/state_encoder/conv1/ScatterElements"
    op_type: "ScatterElements"
    attribute {
      name: "axis"
      i: 0
      type: INT
    }
  }
  node {
    input: "/state_encoder/conv1/ConstantOfShape_1_output_0"
    input: "/state_encoder/conv1/ScatterElements_output_0"
    output: "/state_encoder/conv1/Add_output_0"
    name: "/state_encoder/conv1/Add"
    op_type: "Add"
  }
  node {
    output: "/state_encoder/conv1/Constant_8_output_0"
    name: "/state_encoder/conv1/Constant_8"
    op_type: "Constant"
    attribute {
      name: "value"
      t {
        data_type: 1
        raw_data: "\000\000\000\277"
      }
      type: TENSOR
    }
  }
  node {
    input: "/state_encoder/conv1/Add_output_0"
    input: "/state_encoder/conv1/Constant_8_output_0"
    output: "/state_encoder/conv1/Pow_output_0"
    name: "/state_encoder/conv1/Pow"
    op_type: "Pow"
  }
  node {
    output: "/state_encoder/conv1/Constant_9_output_0"
    name: "/state_encoder/conv1/Constant_9"
    op_type: "Constant"
    attribute {
      name: "value"
      t {
        data_type: 1
        raw_data: "\000\000\200\177"
      }
      type: TENSOR
    }
  }
  node {
    input: "/state_encoder/conv1/Pow_output_0"
    input: "/state_encoder/conv1/Constant_9_output_0"
    output: "/state_encoder/conv1/Equal_output_0"
    name: "/state_encoder/conv1/Equal"
    op_type: "Equal"
  }
  node {
    input: "/state_encoder/conv1/Equal_output_0"
    output: "/state_encoder/conv1/Cast_output_0"
    name: "/state_encoder/conv1/Cast"
    op_type: "Cast"
    attribute {
      name: "to"
      i: 9
      type: INT
    }
  }
  node {
    output: "/state_encoder/conv1/Constant_10_output_0"
    name: "/state_encoder/conv1/Constant_10"
    op_type: "Constant"
    attribute {
      name: "value"
      t {
        data_type: 1
        raw_data: "\000\000\000\000"
      }
      type: TENSOR
    }
  }
  node {
    input: "/state_encoder/conv1/Cast_output_0"
    input: "/state_encoder/conv1/Constant_10_output_0"
    input: "/state_encoder/conv1/Pow_output_0"
    output: "/state_encoder/conv1/Where_output_0"
    name: "/state_encoder/conv1/Where"
    op_type: "Where"
  }
  node {
    input: "/state_encoder/conv1/Where_output_0"
    input: "/state_encoder/conv1/Gather_1_output_0"
    output: "/state_encoder/conv1/Gather_3_output_0"
    name: "/state_encoder/conv1/Gather_3"
    op_type: "Gather"
    attribute {
      name: "axis"
      i: 0
      type: INT
    }
  }
  node {
    input: "/state_encoder/conv1/Gather_3_output_0"
    input: "/state_encoder/conv1/ConstantOfShape_output_0"
    output: "/state_encoder/conv1/Mul_output_0"
    name: "/state_encoder/conv1/Mul"
    op_type: "Mul"
  }
  node {
    input: "/state_encoder/conv1/Where_output_0"
    input: "/state_encoder/conv1/Gather_2_output_0"
    output: "/state_encoder/conv1/Gather_4_output_0"
    name: "/state_encoder/conv1/Gather_4"
    op_type: "Gather"
    attribute {
      name: "axis"
      i: 0
      type: INT
    }
  }
  node {
    input: "/state_encoder/conv1/Mul_output_0"
    input: "/state_encoder/conv1/Gather_4_output_0"
    output: "/state_encoder/conv1/Mul_1_output_0"
    name: "/state_encoder/conv1/Mul_1"
    op_type: "Mul"
  }
  node {
    input: "x_dict"
    input: "onnx::MatMul_430"
    output: "/state_encoder/conv1/lins.0/MatMul_output_0"
    name: "/state_encoder/conv1/lins.0/MatMul"
    op_type: "MatMul"
  }
  node {
    input: "edge_attr_dict"
    input: "/state_encoder/conv1/Constant_6_output_0"
    output: "/state_encoder/conv1/Gather_5_output_0"
    name: "/state_encoder/conv1/Gather_5"
    op_type: "Gather"
    attribute {
      name: "axis"
      i: 0
      type: INT
    }
  }
  node {
    input: "x_dict"
    input: "/state_encoder/conv1/Gather_5_output_0"
    output: "/state_encoder/conv1/Gather_6_output_0"
    name: "/state_encoder/conv1/Gather_6"
    op_type: "Gather"
    attribute {
      name: "axis"
      i: -2
      type: INT
    }
  }
  node {
    input: "edge_attr_dict"
    input: "/state_encoder/conv1/Constant_4_output_0"
    output: "/state_encoder/conv1/Gather_7_output_0"
    name: "/state_encoder/conv1/Gather_7"
    op_type: "Gather"
    attribute {
      name: "axis"
      i: 0
      type: INT
    }
  }
  node {
    output: "/state_encoder/conv1/Constant_11_output_0"
    name: "/state_encoder/conv1/Constant_11"
    op_type: "Constant"
    attribute {
      name: "value"
      t {
        dims: 2
        data_type: 7
        raw_data: "\377\377\377\377\377\377\377\377\001\000\000\000\000\000\000\000"
      }
      type: TENSOR
    }
  }
  node {
    input: "/state_encoder/conv1/Mul_1_output_0"
    input: "/state_encoder/conv1/Constant_11_output_0"
    output: "/state_encoder/conv1/Reshape_1_output_0"
    name: "/state_encoder/conv1/Reshape_1"
    op_type: "Reshape"
    attribute {
      name: "allowzero"
      i: 0
      type: INT
    }
  }
  node {
    input: "/state_encoder/conv1/Reshape_1_output_0"
    input: "/state_encoder/conv1/Gather_6_output_0"
    output: "/state_encoder/conv1/Mul_2_output_0"
    name: "/state_encoder/conv1/Mul_2"
    op_type: "Mul"
  }
  node {
    input: "/state_encoder/conv1/Mul_2_output_0"
    output: "/state_encoder/conv1/aggr_module/Shape_output_0"
    name: "/state_encoder/conv1/aggr_module/Shape"
    op_type: "Shape"
  }
  node {
    output: "/state_encoder/conv1/aggr_module/Constant_output_0"
    name: "/state_encoder/conv1/aggr_module/Constant"
    op_type: "Constant"
    attribute {
      name: "value"
      t {
        data_type: 7
        raw_data: "\001\000\000\000\000\000\000\000"
      }
      type: TENSOR
    }
  }
  node {
    input: "/state_encoder/conv1/aggr_module/Shape_output_0"
    input: "/state_encoder/conv1/aggr_module/Constant_output_0"
    output: "/state_encoder/conv1/aggr_module/Gather_output_0"
    name: "/state_encoder/conv1/aggr_module/Gather"
    op_type: "Gather"
    attribute {
      name: "axis"
      i: 0
      type: INT
    }
  }
  node {
    output: "/state_encoder/conv1/aggr_module/Constant_1_output_0"
    name: "/state_encoder/conv1/aggr_module/Constant_1"
    op_type: "Constant"
    attribute {
      name: "value"
      t {
        dims: 2
        data_type: 7
        raw_data: "\377\377\377\377\377\377\377\377\001\000\000\000\000\000\000\000"
      }
      type: TENSOR
    }
  }
  node {
    input: "/state_encoder/conv1/Gather_7_output_0"
    input: "/state_encoder/conv1/aggr_module/Constant_1_output_0"
    output: "/state_encoder/conv1/aggr_module/Reshape_output_0"
    name: "/state_encoder/conv1/aggr_module/Reshape"
    op_type: "Reshape"
    attribute {
      name: "allowzero"
      i: 0
      type: INT
    }
  }
  node {
    input: "/state_encoder/conv1/Mul_2_output_0"
    output: "/state_encoder/conv1/aggr_module/Shape_1_output_0"
    name: "/state_encoder/conv1/aggr_module/Shape_1"
    op_type: "Shape"
  }
  node {
    input: "/state_encoder/conv1/aggr_module/Reshape_output_0"
    input: "/state_encoder/conv1/aggr_module/Shape_1_output_0"
    output: "/state_encoder/conv1/aggr_module/Expand_output_0"
    name: "/state_encoder/conv1/aggr_module/Expand"
    op_type: "Expand"
  }
  node {
    output: "onnx::Unsqueeze_91"
    name: "Constant_56"
    op_type: "Constant"
    attribute {
      name: "value"
      t {
        dims: 1
        data_type: 7
        raw_data: "\000\000\000\000\000\000\000\000"
      }
      type: TENSOR
    }
  }
  node {
    input: "/state_encoder/conv1/Squeeze_output_0"
    input: "onnx::Unsqueeze_91"
    output: "/state_encoder/conv1/aggr_module/Unsqueeze_output_0"
    name: "/state_encoder/conv1/aggr_module/Unsqueeze"
    op_type: "Unsqueeze"
  }
  node {
    output: "onnx::Unsqueeze_93"
    name: "Constant_58"
    op_type: "Constant"
    attribute {
      name: "value"
      t {
        dims: 1
        data_type: 7
        raw_data: "\000\000\000\000\000\000\000\000"
      }
      type: TENSOR
    }
  }
  node {
    input: "/state_encoder/conv1/aggr_module/Gather_output_0"
    input: "onnx::Unsqueeze_93"
    output: "/state_encoder/conv1/aggr_module/Unsqueeze_1_output_0"
    name: "/state_encoder/conv1/aggr_module/Unsqueeze_1"
    op_type: "Unsqueeze"
  }
  node {
    input: "/state_encoder/conv1/aggr_module/Unsqueeze_output_0"
    input: "/state_encoder/conv1/aggr_module/Unsqueeze_1_output_0"
    output: "/state_encoder/conv1/aggr_module/Concat_output_0"
    name: "/state_encoder/conv1/aggr_module/Concat"
    op_type: "Concat"
    attribute {
      name: "axis"
      i: 0
      type: INT
    }
  }
  node {
    input: "/state_encoder/conv1/aggr_module/Concat_output_0"
    output: "/state_encoder/conv1/aggr_module/ConstantOfShape_output_0"
    name: "/state_encoder/conv1/aggr_module/ConstantOfShape"
    op_type: "ConstantOfShape"
    attribute {
      name: "value"
      t {
        dims: 1
        data_type: 1
        raw_data: "\000\000\000\000"
      }
      type: TENSOR
    }
  }
  node {
    input: "/state_encoder/conv1/aggr_module/ConstantOfShape_output_0"
    output: "/state_encoder/conv1/aggr_module/Shape_2_output_0"
    name: "/state_encoder/conv1/aggr_module/Shape_2"
    op_type: "Shape"
  }
  node {
    input: "/state_encoder/conv1/aggr_module/Shape_2_output_0"
    output: "/state_encoder/conv1/aggr_module/ConstantOfShape_1_output_0"
    name: "/state_encoder/conv1/aggr_module/ConstantOfShape_1"
    op_type: "ConstantOfShape"
    attribute {
      name: "value"
      t {
        dims: 1
        data_type: 1
        raw_data: "\000\000\000\000"
      }
      type: TENSOR
    }
  }
  node {
    input: "/state_encoder/conv1/aggr_module/ConstantOfShape_1_output_0"
    input: "/state_encoder/conv1/aggr_module/Expand_output_0"
    input: "/state_encoder/conv1/Mul_2_output_0"
    output: "/state_encoder/conv1/aggr_module/ScatterElements_output_0"
    name: "/state_encoder/conv1/aggr_module/ScatterElements"
    op_type: "ScatterElements"
    attribute {
      name: "axis"
      i: 0
      type: INT
    }
  }
  node {
    input: "/state_encoder/conv1/aggr_module/ConstantOfShape_output_0"
    input: "/state_encoder/conv1/aggr_module/ScatterElements_output_0"
    output: "/state_encoder/conv1/aggr_module/Add_output_0"
    name: "/state_encoder/conv1/aggr_module/Add"
    op_type: "Add"
  }
  node {
    input: "/state_encoder/conv1/aggr_module/Add_output_0"
    input: "onnx::MatMul_431"
    output: "/state_encoder/conv1/MatMul_output_0"
    name: "/state_encoder/conv1/MatMul"
    op_type: "MatMul"
  }
  node {
    input: "/state_encoder/conv1/lins.0/MatMul_output_0"
    input: "/state_encoder/conv1/MatMul_output_0"
    output: "/state_encoder/conv1/Add_1_output_0"
    name: "/state_encoder/conv1/Add_1"
    op_type: "Add"
  }
  node {
    input: "/state_encoder/conv1/aggr_module/Add_output_0"
    output: "/state_encoder/conv1/Shape_4_output_0"
    name: "/state_encoder/conv1/Shape_4"
    op_type: "Shape"
  }
  node {
    output: "/state_encoder/conv1/Constant_12_output_0"
    name: "/state_encoder/conv1/Constant_12"
    op_type: "Constant"
    attribute {
      name: "value"
      t {
        dims: 1
        data_type: 7
        raw_data: "\000\000\000\000\000\000\000\000"
      }
      type: TENSOR
    }
  }
  node {
    output: "/state_encoder/conv1/Constant_13_output_0"
    name: "/state_encoder/conv1/Constant_13"
    op_type: "Constant"
    attribute {
      name: "value"
      t {
        dims: 1
        data_type: 7
        raw_data: "\376\377\377\377\377\377\377\377"
      }
      type: TENSOR
    }
  }
  node {
    output: "/state_encoder/conv1/Constant_14_output_0"
    name: "/state_encoder/conv1/Constant_14"
    op_type: "Constant"
    attribute {
      name: "value"
      t {
        dims: 1
        data_type: 7
        raw_data: "\377\377\377\377\377\377\377\377"
      }
      type: TENSOR
    }
  }
  node {
    input: "/state_encoder/conv1/Shape_4_output_0"
    input: "/state_encoder/conv1/Constant_13_output_0"
    input: "/state_encoder/conv1/Constant_14_output_0"
    input: "/state_encoder/conv1/Constant_12_output_0"
    output: "/state_encoder/conv1/Slice_1_output_0"
    name: "/state_encoder/conv1/Slice_1"
    op_type: "Slice"
  }
  node {
    output: "/state_encoder/conv1/Constant_15_output_0"
    name: "/state_encoder/conv1/Constant_15"
    op_type: "Constant"
    attribute {
      name: "value"
      t {
        dims: 1
        data_type: 7
        raw_data: "\000\000\000\000\000\000\000\000"
      }
      type: TENSOR
    }
  }
  node {
    input: "/state_encoder/conv1/Slice_1_output_0"
    input: "/state_encoder/conv1/Constant_15_output_0"
    output: "/state_encoder/conv1/Squeeze_1_output_0"
    name: "/state_encoder/conv1/Squeeze_1"
    op_type: "Squeeze"
  }
  node {
    input: "edge_attr_dict"
    input: "/state_encoder/conv1/Constant_6_output_0"
    output: "/state_encoder/conv1/Gather_8_output_0"
    name: "/state_encoder/conv1/Gather_8"
    op_type: "Gather"
    attribute {
      name: "axis"
      i: 0
      type: INT
    }
  }
  node {
    input: "/state_encoder/conv1/aggr_module/Add_output_0"
    input: "/state_encoder/conv1/Gather_8_output_0"
    output: "/state_encoder/conv1/Gather_9_output_0"
    name: "/state_encoder/conv1/Gather_9"
    op_type: "Gather"
    attribute {
      name: "axis"
      i: -2
      type: INT
    }
  }
  node {
    input: "edge_attr_dict"
    input: "/state_encoder/conv1/Constant_4_output_0"
    output: "/state_encoder/conv1/Gather_10_output_0"
    name: "/state_encoder/conv1/Gather_10"
    op_type: "Gather"
    attribute {
      name: "axis"
      i: 0
      type: INT
    }
  }
  node {
    input: "/state_encoder/conv1/Reshape_1_output_0"
    input: "/state_encoder/conv1/Gather_9_output_0"
    output: "/state_encoder/conv1/Mul_3_output_0"
    name: "/state_encoder/conv1/Mul_3"
    op_type: "Mul"
  }
  node {
    input: "/state_encoder/conv1/Mul_3_output_0"
    output: "/state_encoder/conv1/aggr_module_1/Shape_output_0"
    name: "/state_encoder/conv1/aggr_module_1/Shape"
    op_type: "Shape"
  }
  node {
    output: "/state_encoder/conv1/aggr_module_1/Constant_output_0"
    name: "/state_encoder/conv1/aggr_module_1/Constant"
    op_type: "Constant"
    attribute {
      name: "value"
      t {
        data_type: 7
        raw_data: "\001\000\000\000\000\000\000\000"
      }
      type: TENSOR
    }
  }
  node {
    input: "/state_encoder/conv1/aggr_module_1/Shape_output_0"
    input: "/state_encoder/conv1/aggr_module_1/Constant_output_0"
    output: "/state_encoder/conv1/aggr_module_1/Gather_output_0"
    name: "/state_encoder/conv1/aggr_module_1/Gather"
    op_type: "Gather"
    attribute {
      name: "axis"
      i: 0
      type: INT
    }
  }
  node {
    output: "/state_encoder/conv1/aggr_module_1/Constant_1_output_0"
    name: "/state_encoder/conv1/aggr_module_1/Constant_1"
    op_type: "Constant"
    attribute {
      name: "value"
      t {
        dims: 2
        data_type: 7
        raw_data: "\377\377\377\377\377\377\377\377\001\000\000\000\000\000\000\000"
      }
      type: TENSOR
    }
  }
  node {
    input: "/state_encoder/conv1/Gather_10_output_0"
    input: "/state_encoder/conv1/aggr_module_1/Constant_1_output_0"
    output: "/state_encoder/conv1/aggr_module_1/Reshape_output_0"
    name: "/state_encoder/conv1/aggr_module_1/Reshape"
    op_type: "Reshape"
    attribute {
      name: "allowzero"
      i: 0
      type: INT
    }
  }
  node {
    input: "/state_encoder/conv1/Mul_3_output_0"
    output: "/state_encoder/conv1/aggr_module_1/Shape_1_output_0"
    name: "/state_encoder/conv1/aggr_module_1/Shape_1"
    op_type: "Shape"
  }
  node {
    input: "/state_encoder/conv1/aggr_module_1/Reshape_output_0"
    input: "/state_encoder/conv1/aggr_module_1/Shape_1_output_0"
    output: "/state_encoder/conv1/aggr_module_1/Expand_output_0"
    name: "/state_encoder/conv1/aggr_module_1/Expand"
    op_type: "Expand"
  }
  node {
    output: "onnx::Unsqueeze_122"
    name: "Constant_86"
    op_type: "Constant"
    attribute {
      name: "value"
      t {
        dims: 1
        data_type: 7
        raw_data: "\000\000\000\000\000\000\000\000"
      }
      type: TENSOR
    }
  }
  node {
    input: "/state_encoder/conv1/Squeeze_1_output_0"
    input: "onnx::Unsqueeze_122"
    output: "/state_encoder/conv1/aggr_module_1/Unsqueeze_output_0"
    name: "/state_encoder/conv1/aggr_module_1/Unsqueeze"
    op_type: "Unsqueeze"
  }
  node {
    output: "onnx::Unsqueeze_124"
    name: "Constant_88"
    op_type: "Constant"
    attribute {
      name: "value"
      t {
        dims: 1
        data_type: 7
        raw_data: "\000\000\000\000\000\000\000\000"
      }
      type: TENSOR
    }
  }
  node {
    input: "/state_encoder/conv1/aggr_module_1/Gather_output_0"
    input: "onnx::Unsqueeze_124"
    output: "/state_encoder/conv1/aggr_module_1/Unsqueeze_1_output_0"
    name: "/state_encoder/conv1/aggr_module_1/Unsqueeze_1"
    op_type: "Unsqueeze"
  }
  node {
    input: "/state_encoder/conv1/aggr_module_1/Unsqueeze_output_0"
    input: "/state_encoder/conv1/aggr_module_1/Unsqueeze_1_output_0"
    output: "/state_encoder/conv1/aggr_module_1/Concat_output_0"
    name: "/state_encoder/conv1/aggr_module_1/Concat"
    op_type: "Concat"
    attribute {
      name: "axis"
      i: 0
      type: INT
    }
  }
  node {
    input: "/state_encoder/conv1/aggr_module_1/Concat_output_0"
    output: "/state_encoder/conv1/aggr_module_1/ConstantOfShape_output_0"
    name: "/state_encoder/conv1/aggr_module_1/ConstantOfShape"
    op_type: "ConstantOfShape"
    attribute {
      name: "value"
      t {
        dims: 1
        data_type: 1
        raw_data: "\000\000\000\000"
      }
      type: TENSOR
    }
  }
  node {
    input: "/state_encoder/conv1/aggr_module_1/ConstantOfShape_output_0"
    output: "/state_encoder/conv1/aggr_module_1/Shape_2_output_0"
    name: "/state_encoder/conv1/aggr_module_1/Shape_2"
    op_type: "Shape"
  }
  node {
    input: "/state_encoder/conv1/aggr_module_1/Shape_2_output_0"
    output: "/state_encoder/conv1/aggr_module_1/ConstantOfShape_1_output_0"
    name: "/state_encoder/conv1/aggr_module_1/ConstantOfShape_1"
    op_type: "ConstantOfShape"
    attribute {
      name: "value"
      t {
        dims: 1
        data_type: 1
        raw_data: "\000\000\000\000"
      }
      type: TENSOR
    }
  }
  node {
    input: "/state_encoder/conv1/aggr_module_1/ConstantOfShape_1_output_0"
    input: "/state_encoder/conv1/aggr_module_1/Expand_output_0"
    input: "/state_encoder/conv1/Mul_3_output_0"
    output: "/state_encoder/conv1/aggr_module_1/ScatterElements_output_0"
    name: "/state_encoder/conv1/aggr_module_1/ScatterElements"
    op_type: "ScatterElements"
    attribute {
      name: "axis"
      i: 0
      type: INT
    }
  }
  node {
    input: "/state_encoder/conv1/aggr_module_1/ConstantOfShape_output_0"
    input: "/state_encoder/conv1/aggr_module_1/ScatterElements_output_0"
    output: "/state_encoder/conv1/aggr_module_1/Add_output_0"
    name: "/state_encoder/conv1/aggr_module_1/Add"
    op_type: "Add"
  }
  node {
    input: "/state_encoder/conv1/aggr_module_1/Add_output_0"
    input: "onnx::MatMul_432"
    output: "/state_encoder/conv1/MatMul_1_output_0"
    name: "/state_encoder/conv1/MatMul_1"
    op_type: "MatMul"
  }
  node {
    input: "/state_encoder/conv1/Add_1_output_0"
    input: "/state_encoder/conv1/MatMul_1_output_0"
    output: "/state_encoder/conv1/Add_2_output_0"
    name: "/state_encoder/conv1/Add_2"
    op_type: "Add"
  }
  node {
    input: "/state_encoder/conv1/Add_2_output_0"
    input: "state_encoder.conv1.bias"
    output: "/state_encoder/conv1/Add_3_output_0"
    name: "/state_encoder/conv1/Add_3"
    op_type: "Add"
  }
  node {
    input: "/state_encoder/conv1/Add_3_output_0"
    output: "/state_encoder/Relu_output_0"
    name: "/state_encoder/Relu"
    op_type: "Relu"
  }
  node {
    input: "edge_index_dict"
    output: "/state_encoder/conv2/Shape_output_0"
    name: "/state_encoder/conv2/Shape"
    op_type: "Shape"
  }
  node {
    output: "/state_encoder/conv2/Constant_output_0"
    name: "/state_encoder/conv2/Constant"
    op_type: "Constant"
    attribute {
      name: "value"
      t {
        dims: 1
        data_type: 7
        raw_data: "\000\000\000\000\000\000\000\000"
      }
      type: TENSOR
    }
  }
  node {
    output: "/state_encoder/conv2/Constant_1_output_0"
    name: "/state_encoder/conv2/Constant_1"
    op_type: "Constant"
    attribute {
      name: "value"
      t {
        dims: 1
        data_type: 7
        raw_data: "\376\377\377\377\377\377\377\377"
      }
      type: TENSOR
    }
  }
  node {
    output: "/state_encoder/conv2/Constant_2_output_0"
    name: "/state_encoder/conv2/Constant_2"
    op_type: "Constant"
    attribute {
      name: "value"
      t {
        dims: 1
        data_type: 7
        raw_data: "\377\377\377\377\377\377\377\377"
      }
      type: TENSOR
    }
  }
  node {
    input: "/state_encoder/conv2/Shape_output_0"
    input: "/state_encoder/conv2/Constant_1_output_0"
    input: "/state_encoder/conv2/Constant_2_output_0"
    input: "/state_encoder/conv2/Constant_output_0"
    output: "/state_encoder/conv2/Slice_output_0"
    name: "/state_encoder/conv2/Slice"
    op_type: "Slice"
  }
  node {
    output: "/state_encoder/conv2/Constant_3_output_0"
    name: "/state_encoder/conv2/Constant_3"
    op_type: "Constant"
    attribute {
      name: "value"
      t {
        dims: 1
        data_type: 7
        raw_data: "\000\000\000\000\000\000\000\000"
      }
      type: TENSOR
    }
  }
  node {
    input: "/state_encoder/conv2/Slice_output_0"
    input: "/state_encoder/conv2/Constant_3_output_0"
    output: "/state_encoder/conv2/Squeeze_output_0"
    name: "/state_encoder/conv2/Squeeze"
    op_type: "Squeeze"
  }
  node {
    output: "/state_encoder/conv2/Constant_4_output_0"
    name: "/state_encoder/conv2/Constant_4"
    op_type: "Constant"
    attribute {
      name: "value"
      t {
        dims: 0
        data_type: 1
        raw_data: ""
      }
      type: TENSOR
    }
  }
  node {
    input: "edge_index.3"
    input: "/state_encoder/conv1/Constant_6_output_0"
    output: "/state_encoder/conv2/Gather_output_0"
    name: "/state_encoder/conv2/Gather"
    op_type: "Gather"
    attribute {
      name: "axis"
      i: 0
      type: INT
    }
  }
  node {
    input: "edge_index.3"
    input: "/state_encoder/conv1/Constant_4_output_0"
    output: "/state_encoder/conv2/Gather_1_output_0"
    name: "/state_encoder/conv2/Gather_1"
    op_type: "Gather"
    attribute {
      name: "axis"
      i: 0
      type: INT
    }
  }
  node {
    output: "/state_encoder/conv2/Constant_5_output_0"
    name: "/state_encoder/conv2/Constant_5"
    op_type: "Constant"
    attribute {
      name: "value"
      t {
        dims: 1
        data_type: 7
        raw_data: "\377\377\377\377\377\377\377\377"
      }
      type: TENSOR
    }
  }
  node {
    input: "/state_encoder/conv2/Gather_1_output_0"
    input: "/state_encoder/conv2/Constant_5_output_0"
    output: "/state_encoder/conv2/Reshape_output_0"
    name: "/state_encoder/conv2/Reshape"
    op_type: "Reshape"
    attribute {
      name: "allowzero"
      i: 0
      type: INT
    }
  }
  node {
    output: "/state_encoder/conv2/Constant_6_output_0"
    name: "/state_encoder/conv2/Constant_6"
    op_type: "Constant"
    attribute {
      name: "value"
      t {
        dims: 1
        data_type: 7
        raw_data: "\000\000\000\000\000\000\000\000"
      }
      type: TENSOR
    }
  }
  node {
    input: "/state_encoder/conv2/Reshape_output_0"
    input: "/state_encoder/conv2/Constant_6_output_0"
    output: "/state_encoder/conv2/Expand_output_0"
    name: "/state_encoder/conv2/Expand"
    op_type: "Expand"
  }
  node {
    output: "onnx::Unsqueeze_151"
    name: "Constant_114"
    op_type: "Constant"
    attribute {
      name: "value"
      t {
        dims: 1
        data_type: 7
        raw_data: "\000\000\000\000\000\000\000\000"
      }
      type: TENSOR
    }
  }
  node {
    input: "/state_encoder/conv2/Squeeze_output_0"
    input: "onnx::Unsqueeze_151"
    output: "/state_encoder/conv2/Unsqueeze_output_0"
    name: "/state_encoder/conv2/Unsqueeze"
    op_type: "Unsqueeze"
  }
  node {
    input: "/state_encoder/conv2/Unsqueeze_output_0"
    output: "/state_encoder/conv2/Concat_output_0"
    name: "/state_encoder/conv2/Concat"
    op_type: "Concat"
    attribute {
      name: "axis"
      i: 0
      type: INT
    }
  }
  node {
    input: "/state_encoder/conv2/Concat_output_0"
    output: "/state_encoder/conv2/ConstantOfShape_output_0"
    name: "/state_encoder/conv2/ConstantOfShape"
    op_type: "ConstantOfShape"
    attribute {
      name: "value"
      t {
        dims: 1
        data_type: 1
        raw_data: "\000\000\000\000"
      }
      type: TENSOR
    }
  }
  node {
    input: "/state_encoder/conv2/ConstantOfShape_output_0"
    output: "/state_encoder/conv2/Shape_1_output_0"
    name: "/state_encoder/conv2/Shape_1"
    op_type: "Shape"
  }
  node {
    input: "/state_encoder/conv2/Shape_1_output_0"
    output: "/state_encoder/conv2/ConstantOfShape_1_output_0"
    name: "/state_encoder/conv2/ConstantOfShape_1"
    op_type: "ConstantOfShape"
    attribute {
      name: "value"
      t {
        dims: 1
        data_type: 1
        raw_data: "\000\000\000\000"
      }
      type: TENSOR
    }
  }
  node {
    input: "/state_encoder/conv2/ConstantOfShape_1_output_0"
    input: "/state_encoder/conv2/Expand_output_0"
    input: "/state_encoder/conv2/Constant_4_output_0"
    output: "/state_encoder/conv2/ScatterElements_output_0"
    name: "/state_encoder/conv2/ScatterElements"
    op_type: "ScatterElements"
    attribute {
      name: "axis"
      i: 0
      type: INT
    }
  }
  node {
    input: "/state_encoder/conv2/ConstantOfShape_output_0"
    input: "/state_encoder/conv2/ScatterElements_output_0"
    output: "/state_encoder/conv2/Add_output_0"
    name: "/state_encoder/conv2/Add"
    op_type: "Add"
  }
  node {
    output: "/state_encoder/conv2/Constant_7_output_0"
    name: "/state_encoder/conv2/Constant_7"
    op_type: "Constant"
    attribute {
      name: "value"
      t {
        data_type: 1
        raw_data: "\000\000\000\277"
      }
      type: TENSOR
    }
  }
  node {
    input: "/state_encoder/conv2/Add_output_0"
    input: "/state_encoder/conv2/Constant_7_output_0"
    output: "/state_encoder/conv2/Pow_output_0"
    name: "/state_encoder/conv2/Pow"
    op_type: "Pow"
  }
  node {
    output: "/state_encoder/conv2/Constant_8_output_0"
    name: "/state_encoder/conv2/Constant_8"
    op_type: "Constant"
    attribute {
      name: "value"
      t {
        data_type: 1
        raw_data: "\000\000\200\177"
      }
      type: TENSOR
    }
  }
  node {
    input: "/state_encoder/conv2/Pow_output_0"
    input: "/state_encoder/conv2/Constant_8_output_0"
    output: "/state_encoder/conv2/Equal_output_0"
    name: "/state_encoder/conv2/Equal"
    op_type: "Equal"
  }
  node {
    input: "/state_encoder/conv2/Equal_output_0"
    output: "/state_encoder/conv2/Cast_output_0"
    name: "/state_encoder/conv2/Cast"
    op_type: "Cast"
    attribute {
      name: "to"
      i: 9
      type: INT
    }
  }
  node {
    output: "/state_encoder/conv2/Constant_9_output_0"
    name: "/state_encoder/conv2/Constant_9"
    op_type: "Constant"
    attribute {
      name: "value"
      t {
        data_type: 1
        raw_data: "\000\000\000\000"
      }
      type: TENSOR
    }
  }
  node {
    input: "/state_encoder/conv2/Cast_output_0"
    input: "/state_encoder/conv2/Constant_9_output_0"
    input: "/state_encoder/conv2/Pow_output_0"
    output: "/state_encoder/conv2/Where_output_0"
    name: "/state_encoder/conv2/Where"
    op_type: "Where"
  }
  node {
    input: "/state_encoder/conv2/Where_output_0"
    input: "/state_encoder/conv2/Gather_output_0"
    output: "/state_encoder/conv2/Gather_2_output_0"
    name: "/state_encoder/conv2/Gather_2"
    op_type: "Gather"
    attribute {
      name: "axis"
      i: 0
      type: INT
    }
  }
  node {
    output: "/state_encoder/conv2/Constant_10_output_0"
    name: "/state_encoder/conv2/Constant_10"
    op_type: "Constant"
    attribute {
      name: "value"
      t {
        dims: 0
        data_type: 1
        raw_data: ""
      }
      type: TENSOR
    }
  }
  node {
    input: "/state_encoder/conv2/Gather_2_output_0"
    input: "/state_encoder/conv2/Constant_10_output_0"
    output: "/state_encoder/conv2/Mul_output_0"
    name: "/state_encoder/conv2/Mul"
    op_type: "Mul"
  }
  node {
    input: "/state_encoder/conv2/Where_output_0"
    input: "/state_encoder/conv2/Gather_1_output_0"
    output: "/state_encoder/conv2/Gather_3_output_0"
    name: "/state_encoder/conv2/Gather_3"
    op_type: "Gather"
    attribute {
      name: "axis"
      i: 0
      type: INT
    }
  }
  node {
    input: "/state_encoder/conv2/Mul_output_0"
    input: "/state_encoder/conv2/Gather_3_output_0"
    output: "/state_encoder/conv2/Mul_1_output_0"
    name: "/state_encoder/conv2/Mul_1"
    op_type: "Mul"
  }
  node {
    input: "edge_index_dict"
    input: "onnx::MatMul_434"
    output: "/state_encoder/conv2/lins.0/MatMul_output_0"
    name: "/state_encoder/conv2/lins.0/MatMul"
    op_type: "MatMul"
  }
  node {
    input: "edge_index.3"
    input: "/state_encoder/conv1/Constant_6_output_0"
    output: "/state_encoder/conv2/Gather_4_output_0"
    name: "/state_encoder/conv2/Gather_4"
    op_type: "Gather"
    attribute {
      name: "axis"
      i: 0
      type: INT
    }
  }
  node {
    input: "edge_index_dict"
    input: "/state_encoder/conv2/Gather_4_output_0"
    output: "/state_encoder/conv2/Gather_5_output_0"
    name: "/state_encoder/conv2/Gather_5"
    op_type: "Gather"
    attribute {
      name: "axis"
      i: -2
      type: INT
    }
  }
  node {
    input: "edge_index.3"
    input: "/state_encoder/conv1/Constant_4_output_0"
    output: "/state_encoder/conv2/Gather_6_output_0"
    name: "/state_encoder/conv2/Gather_6"
    op_type: "Gather"
    attribute {
      name: "axis"
      i: 0
      type: INT
    }
  }
  node {
    output: "/state_encoder/conv2/Constant_11_output_0"
    name: "/state_encoder/conv2/Constant_11"
    op_type: "Constant"
    attribute {
      name: "value"
      t {
        dims: 2
        data_type: 7
        raw_data: "\377\377\377\377\377\377\377\377\001\000\000\000\000\000\000\000"
      }
      type: TENSOR
    }
  }
  node {
    input: "/state_encoder/conv2/Mul_1_output_0"
    input: "/state_encoder/conv2/Constant_11_output_0"
    output: "/state_encoder/conv2/Reshape_1_output_0"
    name: "/state_encoder/conv2/Reshape_1"
    op_type: "Reshape"
    attribute {
      name: "allowzero"
      i: 0
      type: INT
    }
  }
  node {
    input: "/state_encoder/conv2/Reshape_1_output_0"
    input: "/state_encoder/conv2/Gather_5_output_0"
    output: "/state_encoder/conv2/Mul_2_output_0"
    name: "/state_encoder/conv2/Mul_2"
    op_type: "Mul"
  }
  node {
    input: "/state_encoder/conv2/Mul_2_output_0"
    output: "/state_encoder/conv2/aggr_module/Shape_output_0"
    name: "/state_encoder/conv2/aggr_module/Shape"
    op_type: "Shape"
  }
  node {
    output: "/state_encoder/conv2/aggr_module/Constant_output_0"
    name: "/state_encoder/conv2/aggr_module/Constant"
    op_type: "Constant"
    attribute {
      name: "value"
      t {
        data_type: 7
        raw_data: "\001\000\000\000\000\000\000\000"
      }
      type: TENSOR
    }
  }
  node {
    input: "/state_encoder/conv2/aggr_module/Shape_output_0"
    input: "/state_encoder/conv2/aggr_module/Constant_output_0"
    output: "/state_encoder/conv2/aggr_module/Gather_output_0"
    name: "/state_encoder/conv2/aggr_module/Gather"
    op_type: "Gather"
    attribute {
      name: "axis"
      i: 0
      type: INT
    }
  }
  node {
    output: "/state_encoder/conv2/aggr_module/Constant_1_output_0"
    name: "/state_encoder/conv2/aggr_module/Constant_1"
    op_type: "Constant"
    attribute {
      name: "value"
      t {
        dims: 2
        data_type: 7
        raw_data: "\377\377\377\377\377\377\377\377\001\000\000\000\000\000\000\000"
      }
      type: TENSOR
    }
  }
  node {
    input: "/state_encoder/conv2/Gather_6_output_0"
    input: "/state_encoder/conv2/aggr_module/Constant_1_output_0"
    output: "/state_encoder/conv2/aggr_module/Reshape_output_0"
    name: "/state_encoder/conv2/aggr_module/Reshape"
    op_type: "Reshape"
    attribute {
      name: "allowzero"
      i: 0
      type: INT
    }
  }
  node {
    input: "/state_encoder/conv2/Mul_2_output_0"
    output: "/state_encoder/conv2/aggr_module/Shape_1_output_0"
    name: "/state_encoder/conv2/aggr_module/Shape_1"
    op_type: "Shape"
  }
  node {
    input: "/state_encoder/conv2/aggr_module/Reshape_output_0"
    input: "/state_encoder/conv2/aggr_module/Shape_1_output_0"
    output: "/state_encoder/conv2/aggr_module/Expand_output_0"
    name: "/state_encoder/conv2/aggr_module/Expand"
    op_type: "Expand"
  }
  node {
    output: "onnx::Unsqueeze_186"
    name: "Constant_148"
    op_type: "Constant"
    attribute {
      name: "value"
      t {
        dims: 1
        data_type: 7
        raw_data: "\000\000\000\000\000\000\000\000"
      }
      type: TENSOR
    }
  }
  node {
    input: "/state_encoder/conv2/Squeeze_output_0"
    input: "onnx::Unsqueeze_186"
    output: "/state_encoder/conv2/aggr_module/Unsqueeze_output_0"
    name: "/state_encoder/conv2/aggr_module/Unsqueeze"
    op_type: "Unsqueeze"
  }
  node {
    output: "onnx::Unsqueeze_188"
    name: "Constant_150"
    op_type: "Constant"
    attribute {
      name: "value"
      t {
        dims: 1
        data_type: 7
        raw_data: "\000\000\000\000\000\000\000\000"
      }
      type: TENSOR
    }
  }
  node {
    input: "/state_encoder/conv2/aggr_module/Gather_output_0"
    input: "onnx::Unsqueeze_188"
    output: "/state_encoder/conv2/aggr_module/Unsqueeze_1_output_0"
    name: "/state_encoder/conv2/aggr_module/Unsqueeze_1"
    op_type: "Unsqueeze"
  }
  node {
    input: "/state_encoder/conv2/aggr_module/Unsqueeze_output_0"
    input: "/state_encoder/conv2/aggr_module/Unsqueeze_1_output_0"
    output: "/state_encoder/conv2/aggr_module/Concat_output_0"
    name: "/state_encoder/conv2/aggr_module/Concat"
    op_type: "Concat"
    attribute {
      name: "axis"
      i: 0
      type: INT
    }
  }
  node {
    input: "/state_encoder/conv2/aggr_module/Concat_output_0"
    output: "/state_encoder/conv2/aggr_module/ConstantOfShape_output_0"
    name: "/state_encoder/conv2/aggr_module/ConstantOfShape"
    op_type: "ConstantOfShape"
    attribute {
      name: "value"
      t {
        dims: 1
        data_type: 1
        raw_data: "\000\000\000\000"
      }
      type: TENSOR
    }
  }
  node {
    input: "/state_encoder/conv2/aggr_module/ConstantOfShape_output_0"
    output: "/state_encoder/conv2/aggr_module/Shape_2_output_0"
    name: "/state_encoder/conv2/aggr_module/Shape_2"
    op_type: "Shape"
  }
  node {
    input: "/state_encoder/conv2/aggr_module/Shape_2_output_0"
    output: "/state_encoder/conv2/aggr_module/ConstantOfShape_1_output_0"
    name: "/state_encoder/conv2/aggr_module/ConstantOfShape_1"
    op_type: "ConstantOfShape"
    attribute {
      name: "value"
      t {
        dims: 1
        data_type: 1
        raw_data: "\000\000\000\000"
      }
      type: TENSOR
    }
  }
  node {
    input: "/state_encoder/conv2/aggr_module/ConstantOfShape_1_output_0"
    input: "/state_encoder/conv2/aggr_module/Expand_output_0"
    input: "/state_encoder/conv2/Mul_2_output_0"
    output: "/state_encoder/conv2/aggr_module/ScatterElements_output_0"
    name: "/state_encoder/conv2/aggr_module/ScatterElements"
    op_type: "ScatterElements"
    attribute {
      name: "axis"
      i: 0
      type: INT
    }
  }
  node {
    input: "/state_encoder/conv2/aggr_module/ConstantOfShape_output_0"
    input: "/state_encoder/conv2/aggr_module/ScatterElements_output_0"
    output: "/state_encoder/conv2/aggr_module/Add_output_0"
    name: "/state_encoder/conv2/aggr_module/Add"
    op_type: "Add"
  }
  node {
    input: "/state_encoder/conv2/aggr_module/Add_output_0"
    input: "onnx::MatMul_435"
    output: "/state_encoder/conv2/MatMul_output_0"
    name: "/state_encoder/conv2/MatMul"
    op_type: "MatMul"
  }
  node {
    input: "/state_encoder/conv2/lins.0/MatMul_output_0"
    input: "/state_encoder/conv2/MatMul_output_0"
    output: "/state_encoder/conv2/Add_1_output_0"
    name: "/state_encoder/conv2/Add_1"
    op_type: "Add"
  }
  node {
    input: "/state_encoder/conv2/aggr_module/Add_output_0"
    output: "/state_encoder/conv2/Shape_2_output_0"
    name: "/state_encoder/conv2/Shape_2"
    op_type: "Shape"
  }
  node {
    output: "/state_encoder/conv2/Constant_12_output_0"
    name: "/state_encoder/conv2/Constant_12"
    op_type: "Constant"
    attribute {
      name: "value"
      t {
        dims: 1
        data_type: 7
        raw_data: "\000\000\000\000\000\000\000\000"
      }
      type: TENSOR
    }
  }
  node {
    output: "/state_encoder/conv2/Constant_13_output_0"
    name: "/state_encoder/conv2/Constant_13"
    op_type: "Constant"
    attribute {
      name: "value"
      t {
        dims: 1
        data_type: 7
        raw_data: "\376\377\377\377\377\377\377\377"
      }
      type: TENSOR
    }
  }
  node {
    output: "/state_encoder/conv2/Constant_14_output_0"
    name: "/state_encoder/conv2/Constant_14"
    op_type: "Constant"
    attribute {
      name: "value"
      t {
        dims: 1
        data_type: 7
        raw_data: "\377\377\377\377\377\377\377\377"
      }
      type: TENSOR
    }
  }
  node {
    input: "/state_encoder/conv2/Shape_2_output_0"
    input: "/state_encoder/conv2/Constant_13_output_0"
    input: "/state_encoder/conv2/Constant_14_output_0"
    input: "/state_encoder/conv2/Constant_12_output_0"
    output: "/state_encoder/conv2/Slice_1_output_0"
    name: "/state_encoder/conv2/Slice_1"
    op_type: "Slice"
  }
  node {
    output: "/state_encoder/conv2/Constant_15_output_0"
    name: "/state_encoder/conv2/Constant_15"
    op_type: "Constant"
    attribute {
      name: "value"
      t {
        dims: 1
        data_type: 7
        raw_data: "\000\000\000\000\000\000\000\000"
      }
      type: TENSOR
    }
  }
  node {
    input: "/state_encoder/conv2/Slice_1_output_0"
    input: "/state_encoder/conv2/Constant_15_output_0"
    output: "/state_encoder/conv2/Squeeze_1_output_0"
    name: "/state_encoder/conv2/Squeeze_1"
    op_type: "Squeeze"
  }
  node {
    input: "edge_index.3"
    input: "/state_encoder/conv1/Constant_6_output_0"
    output: "/state_encoder/conv2/Gather_7_output_0"
    name: "/state_encoder/conv2/Gather_7"
    op_type: "Gather"
    attribute {
      name: "axis"
      i: 0
      type: INT
    }
  }
  node {
    input: "/state_encoder/conv2/aggr_module/Add_output_0"
    input: "/state_encoder/conv2/Gather_7_output_0"
    output: "/state_encoder/conv2/Gather_8_output_0"
    name: "/state_encoder/conv2/Gather_8"
    op_type: "Gather"
    attribute {
      name: "axis"
      i: -2
      type: INT
    }
  }
  node {
    input: "edge_index.3"
    input: "/state_encoder/conv1/Constant_4_output_0"
    output: "/state_encoder/conv2/Gather_9_output_0"
    name: "/state_encoder/conv2/Gather_9"
    op_type: "Gather"
    attribute {
      name: "axis"
      i: 0
      type: INT
    }
  }
  node {
    input: "/state_encoder/conv2/Reshape_1_output_0"
    input: "/state_encoder/conv2/Gather_8_output_0"
    output: "/state_encoder/conv2/Mul_3_output_0"
    name: "/state_encoder/conv2/Mul_3"
    op_type: "Mul"
  }
  node {
    input: "/state_encoder/conv2/Mul_3_output_0"
    output: "/state_encoder/conv2/aggr_module_1/Shape_output_0"
    name: "/state_encoder/conv2/aggr_module_1/Shape"
    op_type: "Shape"
  }
  node {
    output: "/state_encoder/conv2/aggr_module_1/Constant_output_0"
    name: "/state_encoder/conv2/aggr_module_1/Constant"
    op_type: "Constant"
    attribute {
      name: "value"
      t {
        data_type: 7
        raw_data: "\001\000\000\000\000\000\000\000"
      }
      type: TENSOR
    }
  }
  node {
    input: "/state_encoder/conv2/aggr_module_1/Shape_output_0"
    input: "/state_encoder/conv2/aggr_module_1/Constant_output_0"
    output: "/state_encoder/conv2/aggr_module_1/Gather_output_0"
    name: "/state_encoder/conv2/aggr_module_1/Gather"
    op_type: "Gather"
    attribute {
      name: "axis"
      i: 0
      type: INT
    }
  }
  node {
    output: "/state_encoder/conv2/aggr_module_1/Constant_1_output_0"
    name: "/state_encoder/conv2/aggr_module_1/Constant_1"
    op_type: "Constant"
    attribute {
      name: "value"
      t {
        dims: 2
        data_type: 7
        raw_data: "\377\377\377\377\377\377\377\377\001\000\000\000\000\000\000\000"
      }
      type: TENSOR
    }
  }
  node {
    input: "/state_encoder/conv2/Gather_9_output_0"
    input: "/state_encoder/conv2/aggr_module_1/Constant_1_output_0"
    output: "/state_encoder/conv2/aggr_module_1/Reshape_output_0"
    name: "/state_encoder/conv2/aggr_module_1/Reshape"
    op_type: "Reshape"
    attribute {
      name: "allowzero"
      i: 0
      type: INT
    }
  }
  node {
    input: "/state_encoder/conv2/Mul_3_output_0"
    output: "/state_encoder/conv2/aggr_module_1/Shape_1_output_0"
    name: "/state_encoder/conv2/aggr_module_1/Shape_1"
    op_type: "Shape"
  }
  node {
    input: "/state_encoder/conv2/aggr_module_1/Reshape_output_0"
    input: "/state_encoder/conv2/aggr_module_1/Shape_1_output_0"
    output: "/state_encoder/conv2/aggr_module_1/Expand_output_0"
    name: "/state_encoder/conv2/aggr_module_1/Expand"
    op_type: "Expand"
  }
  node {
    output: "onnx::Unsqueeze_217"
    name: "Constant_178"
    op_type: "Constant"
    attribute {
      name: "value"
      t {
        dims: 1
        data_type: 7
        raw_data: "\000\000\000\000\000\000\000\000"
      }
      type: TENSOR
    }
  }
  node {
    input: "/state_encoder/conv2/Squeeze_1_output_0"
    input: "onnx::Unsqueeze_217"
    output: "/state_encoder/conv2/aggr_module_1/Unsqueeze_output_0"
    name: "/state_encoder/conv2/aggr_module_1/Unsqueeze"
    op_type: "Unsqueeze"
  }
  node {
    output: "onnx::Unsqueeze_219"
    name: "Constant_180"
    op_type: "Constant"
    attribute {
      name: "value"
      t {
        dims: 1
        data_type: 7
        raw_data: "\000\000\000\000\000\000\000\000"
      }
      type: TENSOR
    }
  }
  node {
    input: "/state_encoder/conv2/aggr_module_1/Gather_output_0"
    input: "onnx::Unsqueeze_219"
    output: "/state_encoder/conv2/aggr_module_1/Unsqueeze_1_output_0"
    name: "/state_encoder/conv2/aggr_module_1/Unsqueeze_1"
    op_type: "Unsqueeze"
  }
  node {
    input: "/state_encoder/conv2/aggr_module_1/Unsqueeze_output_0"
    input: "/state_encoder/conv2/aggr_module_1/Unsqueeze_1_output_0"
    output: "/state_encoder/conv2/aggr_module_1/Concat_output_0"
    name: "/state_encoder/conv2/aggr_module_1/Concat"
    op_type: "Concat"
    attribute {
      name: "axis"
      i: 0
      type: INT
    }
  }
  node {
    input: "/state_encoder/conv2/aggr_module_1/Concat_output_0"
    output: "/state_encoder/conv2/aggr_module_1/ConstantOfShape_output_0"
    name: "/state_encoder/conv2/aggr_module_1/ConstantOfShape"
    op_type: "ConstantOfShape"
    attribute {
      name: "value"
      t {
        dims: 1
        data_type: 1
        raw_data: "\000\000\000\000"
      }
      type: TENSOR
    }
  }
  node {
    input: "/state_encoder/conv2/aggr_module_1/ConstantOfShape_output_0"
    output: "/state_encoder/conv2/aggr_module_1/Shape_2_output_0"
    name: "/state_encoder/conv2/aggr_module_1/Shape_2"
    op_type: "Shape"
  }
  node {
    input: "/state_encoder/conv2/aggr_module_1/Shape_2_output_0"
    output: "/state_encoder/conv2/aggr_module_1/ConstantOfShape_1_output_0"
    name: "/state_encoder/conv2/aggr_module_1/ConstantOfShape_1"
    op_type: "ConstantOfShape"
    attribute {
      name: "value"
      t {
        dims: 1
        data_type: 1
        raw_data: "\000\000\000\000"
      }
      type: TENSOR
    }
  }
  node {
    input: "/state_encoder/conv2/aggr_module_1/ConstantOfShape_1_output_0"
    input: "/state_encoder/conv2/aggr_module_1/Expand_output_0"
    input: "/state_encoder/conv2/Mul_3_output_0"
    output: "/state_encoder/conv2/aggr_module_1/ScatterElements_output_0"
    name: "/state_encoder/conv2/aggr_module_1/ScatterElements"
    op_type: "ScatterElements"
    attribute {
      name: "axis"
      i: 0
      type: INT
    }
  }
  node {
    input: "/state_encoder/conv2/aggr_module_1/ConstantOfShape_output_0"
    input: "/state_encoder/conv2/aggr_module_1/ScatterElements_output_0"
    output: "/state_encoder/conv2/aggr_module_1/Add_output_0"
    name: "/state_encoder/conv2/aggr_module_1/Add"
    op_type: "Add"
  }
  node {
    input: "/state_encoder/conv2/aggr_module_1/Add_output_0"
    input: "onnx::MatMul_436"
    output: "/state_encoder/conv2/MatMul_1_output_0"
    name: "/state_encoder/conv2/MatMul_1"
    op_type: "MatMul"
  }
  node {
    input: "/state_encoder/conv2/Add_1_output_0"
    input: "/state_encoder/conv2/MatMul_1_output_0"
    output: "/state_encoder/conv2/Add_2_output_0"
    name: "/state_encoder/conv2/Add_2"
    op_type: "Add"
  }
  node {
    input: "/state_encoder/conv2/aggr_module_1/Add_output_0"
    output: "/state_encoder/conv2/Shape_3_output_0"
    name: "/state_encoder/conv2/Shape_3"
    op_type: "Shape"
  }
  node {
    output: "/state_encoder/conv2/Constant_16_output_0"
    name: "/state_encoder/conv2/Constant_16"
    op_type: "Constant"
    attribute {
      name: "value"
      t {
        dims: 1
        data_type: 7
        raw_data: "\000\000\000\000\000\000\000\000"
      }
      type: TENSOR
    }
  }
  node {
    output: "/state_encoder/conv2/Constant_17_output_0"
    name: "/state_encoder/conv2/Constant_17"
    op_type: "Constant"
    attribute {
      name: "value"
      t {
        dims: 1
        data_type: 7
        raw_data: "\376\377\377\377\377\377\377\377"
      }
      type: TENSOR
    }
  }
  node {
    output: "/state_encoder/conv2/Constant_18_output_0"
    name: "/state_encoder/conv2/Constant_18"
    op_type: "Constant"
    attribute {
      name: "value"
      t {
        dims: 1
        data_type: 7
        raw_data: "\377\377\377\377\377\377\377\377"
      }
      type: TENSOR
    }
  }
  node {
    input: "/state_encoder/conv2/Shape_3_output_0"
    input: "/state_encoder/conv2/Constant_17_output_0"
    input: "/state_encoder/conv2/Constant_18_output_0"
    input: "/state_encoder/conv2/Constant_16_output_0"
    output: "/state_encoder/conv2/Slice_2_output_0"
    name: "/state_encoder/conv2/Slice_2"
    op_type: "Slice"
  }
  node {
    output: "/state_encoder/conv2/Constant_19_output_0"
    name: "/state_encoder/conv2/Constant_19"
    op_type: "Constant"
    attribute {
      name: "value"
      t {
        dims: 1
        data_type: 7
        raw_data: "\000\000\000\000\000\000\000\000"
      }
      type: TENSOR
    }
  }
  node {
    input: "/state_encoder/conv2/Slice_2_output_0"
    input: "/state_encoder/conv2/Constant_19_output_0"
    output: "/state_encoder/conv2/Squeeze_2_output_0"
    name: "/state_encoder/conv2/Squeeze_2"
    op_type: "Squeeze"
  }
  node {
    input: "edge_index.3"
    input: "/state_encoder/conv1/Constant_6_output_0"
    output: "/state_encoder/conv2/Gather_10_output_0"
    name: "/state_encoder/conv2/Gather_10"
    op_type: "Gather"
    attribute {
      name: "axis"
      i: 0
      type: INT
    }
  }
  node {
    input: "/state_encoder/conv2/aggr_module_1/Add_output_0"
    input: "/state_encoder/conv2/Gather_10_output_0"
    output: "/state_encoder/conv2/Gather_11_output_0"
    name: "/state_encoder/conv2/Gather_11"
    op_type: "Gather"
    attribute {
      name: "axis"
      i: -2
      type: INT
    }
  }
  node {
    input: "edge_index.3"
    input: "/state_encoder/conv1/Constant_4_output_0"
    output: "/state_encoder/conv2/Gather_12_output_0"
    name: "/state_encoder/conv2/Gather_12"
    op_type: "Gather"
    attribute {
      name: "axis"
      i: 0
      type: INT
    }
  }
  node {
    input: "/state_encoder/conv2/Reshape_1_output_0"
    input: "/state_encoder/conv2/Gather_11_output_0"
    output: "/state_encoder/conv2/Mul_4_output_0"
    name: "/state_encoder/conv2/Mul_4"
    op_type: "Mul"
  }
  node {
    input: "/state_encoder/conv2/Mul_4_output_0"
    output: "/state_encoder/conv2/aggr_module_2/Shape_output_0"
    name: "/state_encoder/conv2/aggr_module_2/Shape"
    op_type: "Shape"
  }
  node {
    output: "/state_encoder/conv2/aggr_module_2/Constant_output_0"
    name: "/state_encoder/conv2/aggr_module_2/Constant"
    op_type: "Constant"
    attribute {
      name: "value"
      t {
        data_type: 7
        raw_data: "\001\000\000\000\000\000\000\000"
      }
      type: TENSOR
    }
  }
  node {
    input: "/state_encoder/conv2/aggr_module_2/Shape_output_0"
    input: "/state_encoder/conv2/aggr_module_2/Constant_output_0"
    output: "/state_encoder/conv2/aggr_module_2/Gather_output_0"
    name: "/state_encoder/conv2/aggr_module_2/Gather"
    op_type: "Gather"
    attribute {
      name: "axis"
      i: 0
      type: INT
    }
  }
  node {
    output: "/state_encoder/conv2/aggr_module_2/Constant_1_output_0"
    name: "/state_encoder/conv2/aggr_module_2/Constant_1"
    op_type: "Constant"
    attribute {
      name: "value"
      t {
        dims: 2
        data_type: 7
        raw_data: "\377\377\377\377\377\377\377\377\001\000\000\000\000\000\000\000"
      }
      type: TENSOR
    }
  }
  node {
    input: "/state_encoder/conv2/Gather_12_output_0"
    input: "/state_encoder/conv2/aggr_module_2/Constant_1_output_0"
    output: "/state_encoder/conv2/aggr_module_2/Reshape_output_0"
    name: "/state_encoder/conv2/aggr_module_2/Reshape"
    op_type: "Reshape"
    attribute {
      name: "allowzero"
      i: 0
      type: INT
    }
  }
  node {
    input: "/state_encoder/conv2/Mul_4_output_0"
    output: "/state_encoder/conv2/aggr_module_2/Shape_1_output_0"
    name: "/state_encoder/conv2/aggr_module_2/Shape_1"
    op_type: "Shape"
  }
  node {
    input: "/state_encoder/conv2/aggr_module_2/Reshape_output_0"
    input: "/state_encoder/conv2/aggr_module_2/Shape_1_output_0"
    output: "/state_encoder/conv2/aggr_module_2/Expand_output_0"
    name: "/state_encoder/conv2/aggr_module_2/Expand"
    op_type: "Expand"
  }
  node {
    output: "onnx::Unsqueeze_248"
    name: "Constant_208"
    op_type: "Constant"
    attribute {
      name: "value"
      t {
        dims: 1
        data_type: 7
        raw_data: "\000\000\000\000\000\000\000\000"
      }
      type: TENSOR
    }
  }
  node {
    input: "/state_encoder/conv2/Squeeze_2_output_0"
    input: "onnx::Unsqueeze_248"
    output: "/state_encoder/conv2/aggr_module_2/Unsqueeze_output_0"
    name: "/state_encoder/conv2/aggr_module_2/Unsqueeze"
    op_type: "Unsqueeze"
  }
  node {
    output: "onnx::Unsqueeze_250"
    name: "Constant_210"
    op_type: "Constant"
    attribute {
      name: "value"
      t {
        dims: 1
        data_type: 7
        raw_data: "\000\000\000\000\000\000\000\000"
      }
      type: TENSOR
    }
  }
  node {
    input: "/state_encoder/conv2/aggr_module_2/Gather_output_0"
    input: "onnx::Unsqueeze_250"
    output: "/state_encoder/conv2/aggr_module_2/Unsqueeze_1_output_0"
    name: "/state_encoder/conv2/aggr_module_2/Unsqueeze_1"
    op_type: "Unsqueeze"
  }
  node {
    input: "/state_encoder/conv2/aggr_module_2/Unsqueeze_output_0"
    input: "/state_encoder/conv2/aggr_module_2/Unsqueeze_1_output_0"
    output: "/state_encoder/conv2/aggr_module_2/Concat_output_0"
    name: "/state_encoder/conv2/aggr_module_2/Concat"
    op_type: "Concat"
    attribute {
      name: "axis"
      i: 0
      type: INT
    }
  }
  node {
    input: "/state_encoder/conv2/aggr_module_2/Concat_output_0"
    output: "/state_encoder/conv2/aggr_module_2/ConstantOfShape_output_0"
    name: "/state_encoder/conv2/aggr_module_2/ConstantOfShape"
    op_type: "ConstantOfShape"
    attribute {
      name: "value"
      t {
        dims: 1
        data_type: 1
        raw_data: "\000\000\000\000"
      }
      type: TENSOR
    }
  }
  node {
    input: "/state_encoder/conv2/aggr_module_2/ConstantOfShape_output_0"
    output: "/state_encoder/conv2/aggr_module_2/Shape_2_output_0"
    name: "/state_encoder/conv2/aggr_module_2/Shape_2"
    op_type: "Shape"
  }
  node {
    input: "/state_encoder/conv2/aggr_module_2/Shape_2_output_0"
    output: "/state_encoder/conv2/aggr_module_2/ConstantOfShape_1_output_0"
    name: "/state_encoder/conv2/aggr_module_2/ConstantOfShape_1"
    op_type: "ConstantOfShape"
    attribute {
      name: "value"
      t {
        dims: 1
        data_type: 1
        raw_data: "\000\000\000\000"
      }
      type: TENSOR
    }
  }
  node {
    input: "/state_encoder/conv2/aggr_module_2/ConstantOfShape_1_output_0"
    input: "/state_encoder/conv2/aggr_module_2/Expand_output_0"
    input: "/state_encoder/conv2/Mul_4_output_0"
    output: "/state_encoder/conv2/aggr_module_2/ScatterElements_output_0"
    name: "/state_encoder/conv2/aggr_module_2/ScatterElements"
    op_type: "ScatterElements"
    attribute {
      name: "axis"
      i: 0
      type: INT
    }
  }
  node {
    input: "/state_encoder/conv2/aggr_module_2/ConstantOfShape_output_0"
    input: "/state_encoder/conv2/aggr_module_2/ScatterElements_output_0"
    output: "/state_encoder/conv2/aggr_module_2/Add_output_0"
    name: "/state_encoder/conv2/aggr_module_2/Add"
    op_type: "Add"
  }
  node {
    input: "/state_encoder/conv2/aggr_module_2/Add_output_0"
    input: "onnx::MatMul_437"
    output: "/state_encoder/conv2/MatMul_2_output_0"
    name: "/state_encoder/conv2/MatMul_2"
    op_type: "MatMul"
  }
  node {
    input: "/state_encoder/conv2/Add_2_output_0"
    input: "/state_encoder/conv2/MatMul_2_output_0"
    output: "/state_encoder/conv2/Add_3_output_0"
    name: "/state_encoder/conv2/Add_3"
    op_type: "Add"
  }
  node {
    input: "/state_encoder/conv2/Add_3_output_0"
    input: "state_encoder.conv2.bias"
    output: "/state_encoder/conv2/Add_4_output_0"
    name: "/state_encoder/conv2/Add_4"
    op_type: "Add"
  }
  node {
    input: "/state_encoder/conv2/Add_4_output_0"
    output: "/state_encoder/Relu_1_output_0"
    name: "/state_encoder/Relu_1"
    op_type: "Relu"
  }
  node {
    input: "/state_encoder/Relu_1_output_0"
    output: "/state_encoder/conv3/Shape_output_0"
    name: "/state_encoder/conv3/Shape"
    op_type: "Shape"
  }
  node {
    output: "/state_encoder/conv3/Constant_output_0"
    name: "/state_encoder/conv3/Constant"
    op_type: "Constant"
    attribute {
      name: "value"
      t {
        dims: 1
        data_type: 7
        raw_data: "\000\000\000\000\000\000\000\000"
      }
      type: TENSOR
    }
  }
  node {
    output: "/state_encoder/conv3/Constant_1_output_0"
    name: "/state_encoder/conv3/Constant_1"
    op_type: "Constant"
    attribute {
      name: "value"
      t {
        dims: 1
        data_type: 7
        raw_data: "\376\377\377\377\377\377\377\377"
      }
      type: TENSOR
    }
  }
  node {
    output: "/state_encoder/conv3/Constant_2_output_0"
    name: "/state_encoder/conv3/Constant_2"
    op_type: "Constant"
    attribute {
      name: "value"
      t {
        dims: 1
        data_type: 7
        raw_data: "\377\377\377\377\377\377\377\377"
      }
      type: TENSOR
    }
  }
  node {
    input: "/state_encoder/conv3/Shape_output_0"
    input: "/state_encoder/conv3/Constant_1_output_0"
    input: "/state_encoder/conv3/Constant_2_output_0"
    input: "/state_encoder/conv3/Constant_output_0"
    output: "/state_encoder/conv3/Slice_output_0"
    name: "/state_encoder/conv3/Slice"
    op_type: "Slice"
  }
  node {
    output: "/state_encoder/conv3/Constant_3_output_0"
    name: "/state_encoder/conv3/Constant_3"
    op_type: "Constant"
    attribute {
      name: "value"
      t {
        dims: 1
        data_type: 7
        raw_data: "\000\000\000\000\000\000\000\000"
      }
      type: TENSOR
    }
  }
  node {
    input: "/state_encoder/conv3/Slice_output_0"
    input: "/state_encoder/conv3/Constant_3_output_0"
    output: "/state_encoder/conv3/Squeeze_output_0"
    name: "/state_encoder/conv3/Squeeze"
    op_type: "Squeeze"
  }
  node {
    input: "edge_index.5"
    input: "/state_encoder/conv1/Constant_6_output_0"
    output: "/state_encoder/conv3/Gather_output_0"
    name: "/state_encoder/conv3/Gather"
    op_type: "Gather"
    attribute {
      name: "axis"
      i: 0
      type: INT
    }
  }
  node {
    input: "/state_encoder/Relu_output_0"
    input: "/state_encoder/conv3/Gather_output_0"
    output: "/state_encoder/conv3/Gather_1_output_0"
    name: "/state_encoder/conv3/Gather_1"
    op_type: "Gather"
    attribute {
      name: "axis"
      i: -2
      type: INT
    }
  }
  node {
    input: "edge_index.5"
    input: "/state_encoder/conv1/Constant_4_output_0"
    output: "/state_encoder/conv3/Gather_2_output_0"
    name: "/state_encoder/conv3/Gather_2"
    op_type: "Gather"
    attribute {
      name: "axis"
      i: 0
      type: INT
    }
  }
  node {
    output: "/state_encoder/conv3/Constant_4_output_0"
    name: "/state_encoder/conv3/Constant_4"
    op_type: "Constant"
    attribute {
      name: "value"
      t {
        dims: 2
        data_type: 7
        raw_data: "\377\377\377\377\377\377\377\377\001\000\000\000\000\000\000\000"
      }
      type: TENSOR
    }
  }
  node {
    input: "onnx::Reshape_9"
    input: "/state_encoder/conv3/Constant_4_output_0"
    output: "/state_encoder/conv3/Reshape_output_0"
    name: "/state_encoder/conv3/Reshape"
    op_type: "Reshape"
    attribute {
      name: "allowzero"
      i: 0
      type: INT
    }
  }
  node {
    input: "/state_encoder/conv3/Reshape_output_0"
    output: "/state_encoder/conv3/Cast_output_0"
    name: "/state_encoder/conv3/Cast"
    op_type: "Cast"
    attribute {
      name: "to"
      i: 1
      type: INT
    }
  }
  node {
    input: "/state_encoder/conv3/Cast_output_0"
    input: "/state_encoder/conv3/Gather_1_output_0"
    output: "/state_encoder/conv3/Mul_output_0"
    name: "/state_encoder/conv3/Mul"
    op_type: "Mul"
  }
  node {
    output: "/state_encoder/conv3/aggr_module/Constant_output_0"
    name: "/state_encoder/conv3/aggr_module/Constant"
    op_type: "Constant"
    attribute {
      name: "value"
      t {
        dims: 2
        data_type: 7
        raw_data: "\377\377\377\377\377\377\377\377\001\000\000\000\000\000\000\000"
      }
      type: TENSOR
    }
  }
  node {
    input: "/state_encoder/conv3/Gather_2_output_0"
    input: "/state_encoder/conv3/aggr_module/Constant_output_0"
    output: "/state_encoder/conv3/aggr_module/Reshape_output_0"
    name: "/state_encoder/conv3/aggr_module/Reshape"
    op_type: "Reshape"
    attribute {
      name: "allowzero"
      i: 0
      type: INT
    }
  }
  node {
    input: "/state_encoder/conv3/Mul_output_0"
    output: "/state_encoder/conv3/aggr_module/Shape_output_0"
    name: "/state_encoder/conv3/aggr_module/Shape"
    op_type: "Shape"
  }
  node {
    input: "/state_encoder/conv3/aggr_module/Reshape_output_0"
    input: "/state_encoder/conv3/aggr_module/Shape_output_0"
    output: "/state_encoder/conv3/aggr_module/Expand_output_0"
    name: "/state_encoder/conv3/aggr_module/Expand"
    op_type: "Expand"
  }
  node {
    output: "onnx::Unsqueeze_282"
    name: "Constant_240"
    op_type: "Constant"
    attribute {
      name: "value"
      t {
        dims: 1
        data_type: 7
        raw_data: "\000\000\000\000\000\000\000\000"
      }
      type: TENSOR
    }
  }
  node {
    input: "/state_encoder/conv3/Squeeze_output_0"
    input: "onnx::Unsqueeze_282"
    output: "/state_encoder/conv3/aggr_module/Unsqueeze_output_0"
    name: "/state_encoder/conv3/aggr_module/Unsqueeze"
    op_type: "Unsqueeze"
  }
  node {
    output: "/state_encoder/conv3/aggr_module/Constant_1_output_0"
    name: "/state_encoder/conv3/aggr_module/Constant_1"
    op_type: "Constant"
    attribute {
      name: "value"
      t {
        dims: 1
        data_type: 7
        raw_data: " \000\000\000\000\000\000\000"
      }
      type: TENSOR
    }
  }
  node {
    input: "/state_encoder/conv3/aggr_module/Unsqueeze_output_0"
    input: "/state_encoder/conv3/aggr_module/Constant_1_output_0"
    output: "/state_encoder/conv3/aggr_module/Concat_output_0"
    name: "/state_encoder/conv3/aggr_module/Concat"
    op_type: "Concat"
    attribute {
      name: "axis"
      i: 0
      type: INT
    }
  }
  node {
    input: "/state_encoder/conv3/aggr_module/Concat_output_0"
    output: "/state_encoder/conv3/aggr_module/ConstantOfShape_output_0"
    name: "/state_encoder/conv3/aggr_module/ConstantOfShape"
    op_type: "ConstantOfShape"
    attribute {
      name: "value"
      t {
        dims: 1
        data_type: 1
        raw_data: "\000\000\000\000"
      }
      type: TENSOR
    }
  }
  node {
    input: "/state_encoder/conv3/aggr_module/ConstantOfShape_output_0"
    output: "/state_encoder/conv3/aggr_module/Shape_1_output_0"
    name: "/state_encoder/conv3/aggr_module/Shape_1"
    op_type: "Shape"
  }
  node {
    input: "/state_encoder/conv3/aggr_module/Shape_1_output_0"
    output: "/state_encoder/conv3/aggr_module/ConstantOfShape_1_output_0"
    name: "/state_encoder/conv3/aggr_module/ConstantOfShape_1"
    op_type: "ConstantOfShape"
    attribute {
      name: "value"
      t {
        dims: 1
        data_type: 1
        raw_data: "\000\000\000\000"
      }
      type: TENSOR
    }
  }
  node {
    input: "/state_encoder/conv3/aggr_module/ConstantOfShape_1_output_0"
    input: "/state_encoder/conv3/aggr_module/Expand_output_0"
    input: "/state_encoder/conv3/Mul_output_0"
    output: "/state_encoder/conv3/aggr_module/ScatterElements_output_0"
    name: "/state_encoder/conv3/aggr_module/ScatterElements"
    op_type: "ScatterElements"
    attribute {
      name: "axis"
      i: 0
      type: INT
    }
  }
  node {
    input: "/state_encoder/conv3/aggr_module/ConstantOfShape_output_0"
    input: "/state_encoder/conv3/aggr_module/ScatterElements_output_0"
    output: "/state_encoder/conv3/aggr_module/Add_output_0"
    name: "/state_encoder/conv3/aggr_module/Add"
    op_type: "Add"
  }
  node {
    input: "/state_encoder/conv3/aggr_module/Add_output_0"
    input: "state_encoder.conv3.lin_rel.weight"
    input: "state_encoder.conv3.lin_rel.bias"
    output: "/state_encoder/conv3/lin_rel/Gemm_output_0"
    name: "/state_encoder/conv3/lin_rel/Gemm"
    op_type: "Gemm"
    attribute {
      name: "alpha"
      f: 1.0
      type: FLOAT
    }
    attribute {
      name: "beta"
      f: 1.0
      type: FLOAT
    }
    attribute {
      name: "transB"
      i: 1
      type: INT
    }
  }
  node {
    input: "/state_encoder/Relu_1_output_0"
    input: "onnx::MatMul_439"
    output: "/state_encoder/conv3/lin_root/MatMul_output_0"
    name: "/state_encoder/conv3/lin_root/MatMul"
    op_type: "MatMul"
  }
  node {
    input: "/state_encoder/conv3/lin_rel/Gemm_output_0"
    input: "/state_encoder/conv3/lin_root/MatMul_output_0"
    output: "/state_encoder/conv3/Add_output_0"
    name: "/state_encoder/conv3/Add"
    op_type: "Add"
  }
  node {
    input: "/state_encoder/conv3/Add_output_0"
    output: "/state_encoder/Relu_2_output_0"
    name: "/state_encoder/Relu_2"
    op_type: "Relu"
  }
  node {
    input: "/state_encoder/Relu_2_output_0"
    output: "/state_encoder/conv32/Shape_output_0"
    name: "/state_encoder/conv32/Shape"
    op_type: "Shape"
  }
  node {
    output: "/state_encoder/conv32/Constant_output_0"
    name: "/state_encoder/conv32/Constant"
    op_type: "Constant"
    attribute {
      name: "value"
      t {
        dims: 1
        data_type: 7
        raw_data: "\000\000\000\000\000\000\000\000"
      }
      type: TENSOR
    }
  }
  node {
    output: "/state_encoder/conv32/Constant_1_output_0"
    name: "/state_encoder/conv32/Constant_1"
    op_type: "Constant"
    attribute {
      name: "value"
      t {
        dims: 1
        data_type: 7
        raw_data: "\376\377\377\377\377\377\377\377"
      }
      type: TENSOR
    }
  }
  node {
    output: "/state_encoder/conv32/Constant_2_output_0"
    name: "/state_encoder/conv32/Constant_2"
    op_type: "Constant"
    attribute {
      name: "value"
      t {
        dims: 1
        data_type: 7
        raw_data: "\377\377\377\377\377\377\377\377"
      }
      type: TENSOR
    }
  }
  node {
    input: "/state_encoder/conv32/Shape_output_0"
    input: "/state_encoder/conv32/Constant_1_output_0"
    input: "/state_encoder/conv32/Constant_2_output_0"
    input: "/state_encoder/conv32/Constant_output_0"
    output: "/state_encoder/conv32/Slice_output_0"
    name: "/state_encoder/conv32/Slice"
    op_type: "Slice"
  }
  node {
    output: "/state_encoder/conv32/Constant_3_output_0"
    name: "/state_encoder/conv32/Constant_3"
    op_type: "Constant"
    attribute {
      name: "value"
      t {
        dims: 1
        data_type: 7
        raw_data: "\000\000\000\000\000\000\000\000"
      }
      type: TENSOR
    }
  }
  node {
    input: "/state_encoder/conv32/Slice_output_0"
    input: "/state_encoder/conv32/Constant_3_output_0"
    output: "/state_encoder/conv32/Squeeze_output_0"
    name: "/state_encoder/conv32/Squeeze"
    op_type: "Squeeze"
  }
  node {
    input: "edge_index.5"
    input: "/state_encoder/conv1/Constant_6_output_0"
    output: "/state_encoder/conv32/Gather_output_0"
    name: "/state_encoder/conv32/Gather"
    op_type: "Gather"
    attribute {
      name: "axis"
      i: 0
      type: INT
    }
  }
  node {
    input: "/state_encoder/Relu_output_0"
    input: "/state_encoder/conv32/Gather_output_0"
    output: "/state_encoder/conv32/Gather_1_output_0"
    name: "/state_encoder/conv32/Gather_1"
    op_type: "Gather"
    attribute {
      name: "axis"
      i: -2
      type: INT
    }
  }
  node {
    input: "edge_index.5"
    input: "/state_encoder/conv1/Constant_4_output_0"
    output: "/state_encoder/conv32/Gather_2_output_0"
    name: "/state_encoder/conv32/Gather_2"
    op_type: "Gather"
    attribute {
      name: "axis"
      i: 0
      type: INT
    }
  }
  node {
    output: "/state_encoder/conv32/Constant_4_output_0"
    name: "/state_encoder/conv32/Constant_4"
    op_type: "Constant"
    attribute {
      name: "value"
      t {
        dims: 2
        data_type: 7
        raw_data: "\377\377\377\377\377\377\377\377\001\000\000\000\000\000\000\000"
      }
      type: TENSOR
    }
  }
  node {
    input: "onnx::Reshape_9"
    input: "/state_encoder/conv32/Constant_4_output_0"
    output: "/state_encoder/conv32/Reshape_output_0"
    name: "/state_encoder/conv32/Reshape"
    op_type: "Reshape"
    attribute {
      name: "allowzero"
      i: 0
      type: INT
    }
  }
  node {
    input: "/state_encoder/conv32/Reshape_output_0"
    output: "/state_encoder/conv32/Cast_output_0"
    name: "/state_encoder/conv32/Cast"
    op_type: "Cast"
    attribute {
      name: "to"
      i: 1
      type: INT
    }
  }
  node {
    input: "/state_encoder/conv32/Cast_output_0"
    input: "/state_encoder/conv32/Gather_1_output_0"
    output: "/state_encoder/conv32/Mul_output_0"
    name: "/state_encoder/conv32/Mul"
    op_type: "Mul"
  }
  node {
    output: "/state_encoder/conv32/aggr_module/Constant_output_0"
    name: "/state_encoder/conv32/aggr_module/Constant"
    op_type: "Constant"
    attribute {
      name: "value"
      t {
        dims: 2
        data_type: 7
        raw_data: "\377\377\377\377\377\377\377\377\001\000\000\000\000\000\000\000"
      }
      type: TENSOR
    }
  }
  node {
    input: "/state_encoder/conv32/Gather_2_output_0"
    input: "/state_encoder/conv32/aggr_module/Constant_output_0"
    output: "/state_encoder/conv32/aggr_module/Reshape_output_0"
    name: "/state_encoder/conv32/aggr_module/Reshape"
    op_type: "Reshape"
    attribute {
      name: "allowzero"
      i: 0
      type: INT
    }
  }
  node {
    input: "/state_encoder/conv32/Mul_output_0"
    output: "/state_encoder/conv32/aggr_module/Shape_output_0"
    name: "/state_encoder/conv32/aggr_module/Shape"
    op_type: "Shape"
  }
  node {
    input: "/state_encoder/conv32/aggr_module/Reshape_output_0"
    input: "/state_encoder/conv32/aggr_module/Shape_output_0"
    output: "/state_encoder/conv32/aggr_module/Expand_output_0"
    name: "/state_encoder/conv32/aggr_module/Expand"
    op_type: "Expand"
  }
  node {
    output: "onnx::Unsqueeze_316"
    name: "Constant_271"
    op_type: "Constant"
    attribute {
      name: "value"
      t {
        dims: 1
        data_type: 7
        raw_data: "\000\000\000\000\000\000\000\000"
      }
      type: TENSOR
    }
  }
  node {
    input: "/state_encoder/conv32/Squeeze_output_0"
    input: "onnx::Unsqueeze_316"
    output: "/state_encoder/conv32/aggr_module/Unsqueeze_output_0"
    name: "/state_encoder/conv32/aggr_module/Unsqueeze"
    op_type: "Unsqueeze"
  }
  node {
    output: "/state_encoder/conv32/aggr_module/Constant_1_output_0"
    name: "/state_encoder/conv32/aggr_module/Constant_1"
    op_type: "Constant"
    attribute {
      name: "value"
      t {
        dims: 1
        data_type: 7
        raw_data: " \000\000\000\000\000\000\000"
      }
      type: TENSOR
    }
  }
  node {
    input: "/state_encoder/conv32/aggr_module/Unsqueeze_output_0"
    input: "/state_encoder/conv32/aggr_module/Constant_1_output_0"
    output: "/state_encoder/conv32/aggr_module/Concat_output_0"
    name: "/state_encoder/conv32/aggr_module/Concat"
    op_type: "Concat"
    attribute {
      name: "axis"
      i: 0
      type: INT
    }
  }
  node {
    input: "/state_encoder/conv32/aggr_module/Concat_output_0"
    output: "/state_encoder/conv32/aggr_module/ConstantOfShape_output_0"
    name: "/state_encoder/conv32/aggr_module/ConstantOfShape"
    op_type: "ConstantOfShape"
    attribute {
      name: "value"
      t {
        dims: 1
        data_type: 1
        raw_data: "\000\000\000\000"
      }
      type: TENSOR
    }
  }
  node {
    input: "/state_encoder/conv32/aggr_module/ConstantOfShape_output_0"
    output: "/state_encoder/conv32/aggr_module/Shape_1_output_0"
    name: "/state_encoder/conv32/aggr_module/Shape_1"
    op_type: "Shape"
  }
  node {
    input: "/state_encoder/conv32/aggr_module/Shape_1_output_0"
    output: "/state_encoder/conv32/aggr_module/ConstantOfShape_1_output_0"
    name: "/state_encoder/conv32/aggr_module/ConstantOfShape_1"
    op_type: "ConstantOfShape"
    attribute {
      name: "value"
      t {
        dims: 1
        data_type: 1
        raw_data: "\000\000\000\000"
      }
      type: TENSOR
    }
  }
  node {
    input: "/state_encoder/conv32/aggr_module/ConstantOfShape_1_output_0"
    input: "/state_encoder/conv32/aggr_module/Expand_output_0"
    input: "/state_encoder/conv32/Mul_output_0"
    output: "/state_encoder/conv32/aggr_module/ScatterElements_output_0"
    name: "/state_encoder/conv32/aggr_module/ScatterElements"
    op_type: "ScatterElements"
    attribute {
      name: "axis"
      i: 0
      type: INT
    }
  }
  node {
    input: "/state_encoder/conv32/aggr_module/ConstantOfShape_output_0"
    input: "/state_encoder/conv32/aggr_module/ScatterElements_output_0"
    output: "/state_encoder/conv32/aggr_module/Add_output_0"
    name: "/state_encoder/conv32/aggr_module/Add"
    op_type: "Add"
  }
  node {
    input: "/state_encoder/conv32/aggr_module/Add_output_0"
    input: "state_encoder.conv32.lin_rel.weight"
    input: "state_encoder.conv32.lin_rel.bias"
    output: "/state_encoder/conv32/lin_rel/Gemm_output_0"
    name: "/state_encoder/conv32/lin_rel/Gemm"
    op_type: "Gemm"
    attribute {
      name: "alpha"
      f: 1.0
      type: FLOAT
    }
    attribute {
      name: "beta"
      f: 1.0
      type: FLOAT
    }
    attribute {
      name: "transB"
      i: 1
      type: INT
    }
  }
  node {
    input: "/state_encoder/Relu_2_output_0"
    input: "onnx::MatMul_441"
    output: "/state_encoder/conv32/lin_root/MatMul_output_0"
    name: "/state_encoder/conv32/lin_root/MatMul"
    op_type: "MatMul"
  }
  node {
    input: "/state_encoder/conv32/lin_rel/Gemm_output_0"
    input: "/state_encoder/conv32/lin_root/MatMul_output_0"
    output: "/state_encoder/conv32/Add_output_0"
    name: "/state_encoder/conv32/Add"
    op_type: "Add"
  }
  node {
    input: "/state_encoder/conv32/Add_output_0"
    output: "/state_encoder/Relu_3_output_0"
    name: "/state_encoder/Relu_3"
    op_type: "Relu"
  }
  node {
    input: "/state_encoder/Relu_3_output_0"
    output: "/state_encoder/conv4/Shape_output_0"
    name: "/state_encoder/conv4/Shape"
    op_type: "Shape"
  }
  node {
    output: "/state_encoder/conv4/Constant_output_0"
    name: "/state_encoder/conv4/Constant"
    op_type: "Constant"
    attribute {
      name: "value"
      t {
        dims: 1
        data_type: 7
        raw_data: "\000\000\000\000\000\000\000\000"
      }
      type: TENSOR
    }
  }
  node {
    output: "/state_encoder/conv4/Constant_1_output_0"
    name: "/state_encoder/conv4/Constant_1"
    op_type: "Constant"
    attribute {
      name: "value"
      t {
        dims: 1
        data_type: 7
        raw_data: "\376\377\377\377\377\377\377\377"
      }
      type: TENSOR
    }
  }
  node {
    output: "/state_encoder/conv4/Constant_2_output_0"
    name: "/state_encoder/conv4/Constant_2"
    op_type: "Constant"
    attribute {
      name: "value"
      t {
        dims: 1
        data_type: 7
        raw_data: "\377\377\377\377\377\377\377\377"
      }
      type: TENSOR
    }
  }
  node {
    input: "/state_encoder/conv4/Shape_output_0"
    input: "/state_encoder/conv4/Constant_1_output_0"
    input: "/state_encoder/conv4/Constant_2_output_0"
    input: "/state_encoder/conv4/Constant_output_0"
    output: "/state_encoder/conv4/Slice_output_0"
    name: "/state_encoder/conv4/Slice"
    op_type: "Slice"
  }
  node {
    output: "/state_encoder/conv4/Constant_3_output_0"
    name: "/state_encoder/conv4/Constant_3"
    op_type: "Constant"
    attribute {
      name: "value"
      t {
        dims: 1
        data_type: 7
        raw_data: "\000\000\000\000\000\000\000\000"
      }
      type: TENSOR
    }
  }
  node {
    input: "/state_encoder/conv4/Slice_output_0"
    input: "/state_encoder/conv4/Constant_3_output_0"
    output: "/state_encoder/conv4/Squeeze_output_0"
    name: "/state_encoder/conv4/Squeeze"
    op_type: "Squeeze"
  }
  node {
    input: "edge_index"
    input: "/state_encoder/conv1/Constant_6_output_0"
    output: "/state_encoder/conv4/Gather_output_0"
    name: "/state_encoder/conv4/Gather"
    op_type: "Gather"
    attribute {
      name: "axis"
      i: 0
      type: INT
    }
  }
  node {
    input: "/state_encoder/Relu_output_0"
    input: "/state_encoder/conv4/Gather_output_0"
    output: "/state_encoder/conv4/Gather_1_output_0"
    name: "/state_encoder/conv4/Gather_1"
    op_type: "Gather"
    attribute {
      name: "axis"
      i: -2
      type: INT
    }
  }
  node {
    input: "edge_index"
    input: "/state_encoder/conv1/Constant_4_output_0"
    output: "/state_encoder/conv4/Gather_2_output_0"
    name: "/state_encoder/conv4/Gather_2"
    op_type: "Gather"
    attribute {
      name: "axis"
      i: 0
      type: INT
    }
  }
  node {
    output: "onnx::Unsqueeze_342"
    name: "Constant_294"
    op_type: "Constant"
    attribute {
      name: "value"
      t {
        dims: 1
        data_type: 7
        raw_data: "\000\000\000\000\000\000\000\000"
      }
      type: TENSOR
    }
  }
  node {
    input: "/state_encoder/conv4/Squeeze_output_0"
    input: "onnx::Unsqueeze_342"
    output: "/state_encoder/conv4/aggr_module/Unsqueeze_output_0"
    name: "/state_encoder/conv4/aggr_module/Unsqueeze"
    op_type: "Unsqueeze"
  }
  node {
    input: "/state_encoder/conv4/aggr_module/Unsqueeze_output_0"
    output: "/state_encoder/conv4/aggr_module/Concat_output_0"
    name: "/state_encoder/conv4/aggr_module/Concat"
    op_type: "Concat"
    attribute {
      name: "axis"
      i: 0
      type: INT
    }
  }
  node {
    output: "/state_encoder/conv4/aggr_module/Constant_output_0"
    name: "/state_encoder/conv4/aggr_module/Constant"
    op_type: "Constant"
    attribute {
      name: "value"
      t {
        dims: 1
        data_type: 1
        raw_data: "\000\000\200?"
      }
      type: TENSOR
    }
  }
  node {
    input: "/state_encoder/conv4/aggr_module/Concat_output_0"
    output: "/state_encoder/conv4/aggr_module/ConstantOfShape_output_0"
    name: "/state_encoder/conv4/aggr_module/ConstantOfShape"
    op_type: "ConstantOfShape"
    attribute {
      name: "value"
      t {
        dims: 1
        data_type: 1
        raw_data: "\000\000\000\000"
      }
      type: TENSOR
    }
  }
  node {
    input: "/state_encoder/conv4/aggr_module/ConstantOfShape_output_0"
    output: "/state_encoder/conv4/aggr_module/Shape_output_0"
    name: "/state_encoder/conv4/aggr_module/Shape"
    op_type: "Shape"
  }
  node {
    input: "/state_encoder/conv4/aggr_module/Shape_output_0"
    output: "/state_encoder/conv4/aggr_module/ConstantOfShape_1_output_0"
    name: "/state_encoder/conv4/aggr_module/ConstantOfShape_1"
    op_type: "ConstantOfShape"
    attribute {
      name: "value"
      t {
        dims: 1
        data_type: 1
        raw_data: "\000\000\000\000"
      }
      type: TENSOR
    }
  }
  node {
    input: "/state_encoder/conv4/aggr_module/ConstantOfShape_1_output_0"
    input: "/state_encoder/conv4/Gather_2_output_0"
    input: "/state_encoder/conv4/aggr_module/Constant_output_0"
    output: "/state_encoder/conv4/aggr_module/ScatterElements_output_0"
    name: "/state_encoder/conv4/aggr_module/ScatterElements"
    op_type: "ScatterElements"
    attribute {
      name: "axis"
      i: 0
      type: INT
    }
  }
  node {
    input: "/state_encoder/conv4/aggr_module/ConstantOfShape_output_0"
    input: "/state_encoder/conv4/aggr_module/ScatterElements_output_0"
    output: "/state_encoder/conv4/aggr_module/Add_output_0"
    name: "/state_encoder/conv4/aggr_module/Add"
    op_type: "Add"
  }
  node {
    output: "/state_encoder/conv4/aggr_module/Constant_1_output_0"
    name: "/state_encoder/conv4/aggr_module/Constant_1"
    op_type: "Constant"
    attribute {
      name: "value"
      t {
        data_type: 1
        raw_data: "\000\000\200?"
      }
      type: TENSOR
    }
  }
  node {
    input: "/state_encoder/conv4/aggr_module/Add_output_0"
    input: "/state_encoder/conv4/aggr_module/Constant_1_output_0"
    input: ""
    output: "/state_encoder/conv4/aggr_module/Clip_output_0"
    name: "/state_encoder/conv4/aggr_module/Clip"
    op_type: "Clip"
  }
  node {
    output: "/state_encoder/conv4/aggr_module/Constant_2_output_0"
    name: "/state_encoder/conv4/aggr_module/Constant_2"
    op_type: "Constant"
    attribute {
      name: "value"
      t {
        dims: 2
        data_type: 7
        raw_data: "\377\377\377\377\377\377\377\377\001\000\000\000\000\000\000\000"
      }
      type: TENSOR
    }
  }
  node {
    input: "/state_encoder/conv4/Gather_2_output_0"
    input: "/state_encoder/conv4/aggr_module/Constant_2_output_0"
    output: "/state_encoder/conv4/aggr_module/Reshape_output_0"
    name: "/state_encoder/conv4/aggr_module/Reshape"
    op_type: "Reshape"
    attribute {
      name: "allowzero"
      i: 0
      type: INT
    }
  }
  node {
    input: "/state_encoder/conv4/Gather_1_output_0"
    output: "/state_encoder/conv4/aggr_module/Shape_1_output_0"
    name: "/state_encoder/conv4/aggr_module/Shape_1"
    op_type: "Shape"
  }
  node {
    input: "/state_encoder/conv4/aggr_module/Reshape_output_0"
    input: "/state_encoder/conv4/aggr_module/Shape_1_output_0"
    output: "/state_encoder/conv4/aggr_module/Expand_output_0"
    name: "/state_encoder/conv4/aggr_module/Expand"
    op_type: "Expand"
  }
  node {
    output: "onnx::Unsqueeze_359"
    name: "Constant_309"
    op_type: "Constant"
    attribute {
      name: "value"
      t {
        dims: 1
        data_type: 7
        raw_data: "\000\000\000\000\000\000\000\000"
      }
      type: TENSOR
    }
  }
  node {
    input: "/state_encoder/conv4/Squeeze_output_0"
    input: "onnx::Unsqueeze_359"
    output: "/state_encoder/conv4/aggr_module/Unsqueeze_1_output_0"
    name: "/state_encoder/conv4/aggr_module/Unsqueeze_1"
    op_type: "Unsqueeze"
  }
  node {
    output: "/state_encoder/conv4/aggr_module/Constant_3_output_0"
    name: "/state_encoder/conv4/aggr_module/Constant_3"
    op_type: "Constant"
    attribute {
      name: "value"
      t {
        dims: 1
        data_type: 7
        raw_data: " \000\000\000\000\000\000\000"
      }
      type: TENSOR
    }
  }
  node {
    input: "/state_encoder/conv4/aggr_module/Unsqueeze_1_output_0"
    input: "/state_encoder/conv4/aggr_module/Constant_3_output_0"
    output: "/state_encoder/conv4/aggr_module/Concat_1_output_0"
    name: "/state_encoder/conv4/aggr_module/Concat_1"
    op_type: "Concat"
    attribute {
      name: "axis"
      i: 0
      type: INT
    }
  }
  node {
    input: "/state_encoder/conv4/aggr_module/Concat_1_output_0"
    output: "/state_encoder/conv4/aggr_module/ConstantOfShape_2_output_0"
    name: "/state_encoder/conv4/aggr_module/ConstantOfShape_2"
    op_type: "ConstantOfShape"
    attribute {
      name: "value"
      t {
        dims: 1
        data_type: 1
        raw_data: "\000\000\000\000"
      }
      type: TENSOR
    }
  }
  node {
    input: "/state_encoder/conv4/aggr_module/ConstantOfShape_2_output_0"
    output: "/state_encoder/conv4/aggr_module/Shape_2_output_0"
    name: "/state_encoder/conv4/aggr_module/Shape_2"
    op_type: "Shape"
  }
  node {
    input: "/state_encoder/conv4/aggr_module/Shape_2_output_0"
    output: "/state_encoder/conv4/aggr_module/ConstantOfShape_3_output_0"
    name: "/state_encoder/conv4/aggr_module/ConstantOfShape_3"
    op_type: "ConstantOfShape"
    attribute {
      name: "value"
      t {
        dims: 1
        data_type: 1
        raw_data: "\000\000\000\000"
      }
      type: TENSOR
    }
  }
  node {
    input: "/state_encoder/conv4/aggr_module/ConstantOfShape_3_output_0"
    input: "/state_encoder/conv4/aggr_module/Expand_output_0"
    input: "/state_encoder/conv4/Gather_1_output_0"
    output: "/state_encoder/conv4/aggr_module/ScatterElements_1_output_0"
    name: "/state_encoder/conv4/aggr_module/ScatterElements_1"
    op_type: "ScatterElements"
    attribute {
      name: "axis"
      i: 0
      type: INT
    }
  }
  node {
    input: "/state_encoder/conv4/aggr_module/ConstantOfShape_2_output_0"
    input: "/state_encoder/conv4/aggr_module/ScatterElements_1_output_0"
    output: "/state_encoder/conv4/aggr_module/Add_1_output_0"
    name: "/state_encoder/conv4/aggr_module/Add_1"
    op_type: "Add"
  }
  node {
    output: "/state_encoder/conv4/aggr_module/Constant_4_output_0"
    name: "/state_encoder/conv4/aggr_module/Constant_4"
    op_type: "Constant"
    attribute {
      name: "value"
      t {
        dims: 2
        data_type: 7
        raw_data: "\377\377\377\377\377\377\377\377\001\000\000\000\000\000\000\000"
      }
      type: TENSOR
    }
  }
  node {
    input: "/state_encoder/conv4/aggr_module/Clip_output_0"
    input: "/state_encoder/conv4/aggr_module/Constant_4_output_0"
    output: "/state_encoder/conv4/aggr_module/Reshape_1_output_0"
    name: "/state_encoder/conv4/aggr_module/Reshape_1"
    op_type: "Reshape"
    attribute {
      name: "allowzero"
      i: 0
      type: INT
    }
  }
  node {
    input: "/state_encoder/conv4/aggr_module/Add_1_output_0"
    output: "/state_encoder/conv4/aggr_module/Shape_3_output_0"
    name: "/state_encoder/conv4/aggr_module/Shape_3"
    op_type: "Shape"
  }
  node {
    input: "/state_encoder/conv4/aggr_module/Reshape_1_output_0"
    input: "/state_encoder/conv4/aggr_module/Shape_3_output_0"
    output: "/state_encoder/conv4/aggr_module/Expand_1_output_0"
    name: "/state_encoder/conv4/aggr_module/Expand_1"
    op_type: "Expand"
  }
  node {
    input: "/state_encoder/conv4/aggr_module/Add_1_output_0"
    input: "/state_encoder/conv4/aggr_module/Expand_1_output_0"
    output: "/state_encoder/conv4/aggr_module/Div_output_0"
    name: "/state_encoder/conv4/aggr_module/Div"
    op_type: "Div"
  }
  node {
    input: "/state_encoder/conv4/aggr_module/Div_output_0"
    input: "state_encoder.conv4.lin_l.weight"
    input: "state_encoder.conv4.lin_l.bias"
    output: "/state_encoder/conv4/lin_l/Gemm_output_0"
    name: "/state_encoder/conv4/lin_l/Gemm"
    op_type: "Gemm"
    attribute {
      name: "alpha"
      f: 1.0
      type: FLOAT
    }
    attribute {
      name: "beta"
      f: 1.0
      type: FLOAT
    }
    attribute {
      name: "transB"
      i: 1
      type: INT
    }
  }
  node {
    input: "/state_encoder/Relu_3_output_0"
    input: "onnx::MatMul_445"
    output: "/state_encoder/conv4/lin_r/MatMul_output_0"
    name: "/state_encoder/conv4/lin_r/MatMul"
    op_type: "MatMul"
  }
  node {
    input: "/state_encoder/conv4/lin_l/Gemm_output_0"
    input: "/state_encoder/conv4/lin_r/MatMul_output_0"
    output: "/state_encoder/conv4/Add_output_0"
    name: "/state_encoder/conv4/Add"
    op_type: "Add"
  }
  node {
    input: "/state_encoder/conv4/Add_output_0"
    output: "/state_encoder/Relu_4_output_0"
    name: "/state_encoder/Relu_4"
    op_type: "Relu"
  }
  node {
    input: "/state_encoder/Relu_4_output_0"
    output: "/state_encoder/conv42/Shape_output_0"
    name: "/state_encoder/conv42/Shape"
    op_type: "Shape"
  }
  node {
    output: "/state_encoder/conv42/Constant_output_0"
    name: "/state_encoder/conv42/Constant"
    op_type: "Constant"
    attribute {
      name: "value"
      t {
        dims: 1
        data_type: 7
        raw_data: "\000\000\000\000\000\000\000\000"
      }
      type: TENSOR
    }
  }
  node {
    output: "/state_encoder/conv42/Constant_1_output_0"
    name: "/state_encoder/conv42/Constant_1"
    op_type: "Constant"
    attribute {
      name: "value"
      t {
        dims: 1
        data_type: 7
        raw_data: "\376\377\377\377\377\377\377\377"
      }
      type: TENSOR
    }
  }
  node {
    output: "/state_encoder/conv42/Constant_2_output_0"
    name: "/state_encoder/conv42/Constant_2"
    op_type: "Constant"
    attribute {
      name: "value"
      t {
        dims: 1
        data_type: 7
        raw_data: "\377\377\377\377\377\377\377\377"
      }
      type: TENSOR
    }
  }
  node {
    input: "/state_encoder/conv42/Shape_output_0"
    input: "/state_encoder/conv42/Constant_1_output_0"
    input: "/state_encoder/conv42/Constant_2_output_0"
    input: "/state_encoder/conv42/Constant_output_0"
    output: "/state_encoder/conv42/Slice_output_0"
    name: "/state_encoder/conv42/Slice"
    op_type: "Slice"
  }
  node {
    output: "/state_encoder/conv42/Constant_3_output_0"
    name: "/state_encoder/conv42/Constant_3"
    op_type: "Constant"
    attribute {
      name: "value"
      t {
        dims: 1
        data_type: 7
        raw_data: "\000\000\000\000\000\000\000\000"
      }
      type: TENSOR
    }
  }
  node {
    input: "/state_encoder/conv42/Slice_output_0"
    input: "/state_encoder/conv42/Constant_3_output_0"
    output: "/state_encoder/conv42/Squeeze_output_0"
    name: "/state_encoder/conv42/Squeeze"
    op_type: "Squeeze"
  }
  node {
    input: "edge_index"
    input: "/state_encoder/conv1/Constant_6_output_0"
    output: "/state_encoder/conv42/Gather_output_0"
    name: "/state_encoder/conv42/Gather"
    op_type: "Gather"
    attribute {
      name: "axis"
      i: 0
      type: INT
    }
  }
  node {
    input: "/state_encoder/Relu_output_0"
    input: "/state_encoder/conv42/Gather_output_0"
    output: "/state_encoder/conv42/Gather_1_output_0"
    name: "/state_encoder/conv42/Gather_1"
    op_type: "Gather"
    attribute {
      name: "axis"
      i: -2
      type: INT
    }
  }
  node {
    input: "edge_index"
    input: "/state_encoder/conv1/Constant_4_output_0"
    output: "/state_encoder/conv42/Gather_2_output_0"
    name: "/state_encoder/conv42/Gather_2"
    op_type: "Gather"
    attribute {
      name: "axis"
      i: 0
      type: INT
    }
  }
  node {
    output: "onnx::Unsqueeze_390"
    name: "Constant_337"
    op_type: "Constant"
    attribute {
      name: "value"
      t {
        dims: 1
        data_type: 7
        raw_data: "\000\000\000\000\000\000\000\000"
      }
      type: TENSOR
    }
  }
  node {
    input: "/state_encoder/conv42/Squeeze_output_0"
    input: "onnx::Unsqueeze_390"
    output: "/state_encoder/conv42/aggr_module/Unsqueeze_output_0"
    name: "/state_encoder/conv42/aggr_module/Unsqueeze"
    op_type: "Unsqueeze"
  }
  node {
    input: "/state_encoder/conv42/aggr_module/Unsqueeze_output_0"
    output: "/state_encoder/conv42/aggr_module/Concat_output_0"
    name: "/state_encoder/conv42/aggr_module/Concat"
    op_type: "Concat"
    attribute {
      name: "axis"
      i: 0
      type: INT
    }
  }
  node {
    output: "/state_encoder/conv42/aggr_module/Constant_output_0"
    name: "/state_encoder/conv42/aggr_module/Constant"
    op_type: "Constant"
    attribute {
      name: "value"
      t {
        dims: 1
        data_type: 1
        raw_data: "\000\000\200?"
      }
      type: TENSOR
    }
  }
  node {
    input: "/state_encoder/conv42/aggr_module/Concat_output_0"
    output: "/state_encoder/conv42/aggr_module/ConstantOfShape_output_0"
    name: "/state_encoder/conv42/aggr_module/ConstantOfShape"
    op_type: "ConstantOfShape"
    attribute {
      name: "value"
      t {
        dims: 1
        data_type: 1
        raw_data: "\000\000\000\000"
      }
      type: TENSOR
    }
  }
  node {
    input: "/state_encoder/conv42/aggr_module/ConstantOfShape_output_0"
    output: "/state_encoder/conv42/aggr_module/Shape_output_0"
    name: "/state_encoder/conv42/aggr_module/Shape"
    op_type: "Shape"
  }
  node {
    input: "/state_encoder/conv42/aggr_module/Shape_output_0"
    output: "/state_encoder/conv42/aggr_module/ConstantOfShape_1_output_0"
    name: "/state_encoder/conv42/aggr_module/ConstantOfShape_1"
    op_type: "ConstantOfShape"
    attribute {
      name: "value"
      t {
        dims: 1
        data_type: 1
        raw_data: "\000\000\000\000"
      }
      type: TENSOR
    }
  }
  node {
    input: "/state_encoder/conv42/aggr_module/ConstantOfShape_1_output_0"
    input: "/state_encoder/conv42/Gather_2_output_0"
    input: "/state_encoder/conv42/aggr_module/Constant_output_0"
    output: "/state_encoder/conv42/aggr_module/ScatterElements_output_0"
    name: "/state_encoder/conv42/aggr_module/ScatterElements"
    op_type: "ScatterElements"
    attribute {
      name: "axis"
      i: 0
      type: INT
    }
  }
  node {
    input: "/state_encoder/conv42/aggr_module/ConstantOfShape_output_0"
    input: "/state_encoder/conv42/aggr_module/ScatterElements_output_0"
    output: "/state_encoder/conv42/aggr_module/Add_output_0"
    name: "/state_encoder/conv42/aggr_module/Add"
    op_type: "Add"
  }
  node {
    output: "/state_encoder/conv42/aggr_module/Constant_1_output_0"
    name: "/state_encoder/conv42/aggr_module/Constant_1"
    op_type: "Constant"
    attribute {
      name: "value"
      t {
        data_type: 1
        raw_data: "\000\000\200?"
      }
      type: TENSOR
    }
  }
  node {
    input: "/state_encoder/conv42/aggr_module/Add_output_0"
    input: "/state_encoder/conv42/aggr_module/Constant_1_output_0"
    input: ""
    output: "/state_encoder/conv42/aggr_module/Clip_output_0"
    name: "/state_encoder/conv42/aggr_module/Clip"
    op_type: "Clip"
  }
  node {
    output: "/state_encoder/conv42/aggr_module/Constant_2_output_0"
    name: "/state_encoder/conv42/aggr_module/Constant_2"
    op_type: "Constant"
    attribute {
      name: "value"
      t {
        dims: 2
        data_type: 7
        raw_data: "\377\377\377\377\377\377\377\377\001\000\000\000\000\000\000\000"
      }
      type: TENSOR
    }
  }
  node {
    input: "/state_encoder/conv42/Gather_2_output_0"
    input: "/state_encoder/conv42/aggr_module/Constant_2_output_0"
    output: "/state_encoder/conv42/aggr_module/Reshape_output_0"
    name: "/state_encoder/conv42/aggr_module/Reshape"
    op_type: "Reshape"
    attribute {
      name: "allowzero"
      i: 0
      type: INT
    }
  }
  node {
    input: "/state_encoder/conv42/Gather_1_output_0"
    output: "/state_encoder/conv42/aggr_module/Shape_1_output_0"
    name: "/state_encoder/conv42/aggr_module/Shape_1"
    op_type: "Shape"
  }
  node {
    input: "/state_encoder/conv42/aggr_module/Reshape_output_0"
    input: "/state_encoder/conv42/aggr_module/Shape_1_output_0"
    output: "/state_encoder/conv42/aggr_module/Expand_output_0"
    name: "/state_encoder/conv42/aggr_module/Expand"
    op_type: "Expand"
  }
  node {
    output: "onnx::Unsqueeze_407"
    name: "Constant_352"
    op_type: "Constant"
    attribute {
      name: "value"
      t {
        dims: 1
        data_type: 7
        raw_data: "\000\000\000\000\000\000\000\000"
      }
      type: TENSOR
    }
  }
  node {
    input: "/state_encoder/conv42/Squeeze_output_0"
    input: "onnx::Unsqueeze_407"
    output: "/state_encoder/conv42/aggr_module/Unsqueeze_1_output_0"
    name: "/state_encoder/conv42/aggr_module/Unsqueeze_1"
    op_type: "Unsqueeze"
  }
  node {
    output: "/state_encoder/conv42/aggr_module/Constant_3_output_0"
    name: "/state_encoder/conv42/aggr_module/Constant_3"
    op_type: "Constant"
    attribute {
      name: "value"
      t {
        dims: 1
        data_type: 7
        raw_data: " \000\000\000\000\000\000\000"
      }
      type: TENSOR
    }
  }
  node {
    input: "/state_encoder/conv42/aggr_module/Unsqueeze_1_output_0"
    input: "/state_encoder/conv42/aggr_module/Constant_3_output_0"
    output: "/state_encoder/conv42/aggr_module/Concat_1_output_0"
    name: "/state_encoder/conv42/aggr_module/Concat_1"
    op_type: "Concat"
    attribute {
      name: "axis"
      i: 0
      type: INT
    }
  }
  node {
    input: "/state_encoder/conv42/aggr_module/Concat_1_output_0"
    output: "/state_encoder/conv42/aggr_module/ConstantOfShape_2_output_0"
    name: "/state_encoder/conv42/aggr_module/ConstantOfShape_2"
    op_type: "ConstantOfShape"
    attribute {
      name: "value"
      t {
        dims: 1
        data_type: 1
        raw_data: "\000\000\000\000"
      }
      type: TENSOR
    }
  }
  node {
    input: "/state_encoder/conv42/aggr_module/ConstantOfShape_2_output_0"
    output: "/state_encoder/conv42/aggr_module/Shape_2_output_0"
    name: "/state_encoder/conv42/aggr_module/Shape_2"
    op_type: "Shape"
  }
  node {
    input: "/state_encoder/conv42/aggr_module/Shape_2_output_0"
    output: "/state_encoder/conv42/aggr_module/ConstantOfShape_3_output_0"
    name: "/state_encoder/conv42/aggr_module/ConstantOfShape_3"
    op_type: "ConstantOfShape"
    attribute {
      name: "value"
      t {
        dims: 1
        data_type: 1
        raw_data: "\000\000\000\000"
      }
      type: TENSOR
    }
  }
  node {
    input: "/state_encoder/conv42/aggr_module/ConstantOfShape_3_output_0"
    input: "/state_encoder/conv42/aggr_module/Expand_output_0"
    input: "/state_encoder/conv42/Gather_1_output_0"
    output: "/state_encoder/conv42/aggr_module/ScatterElements_1_output_0"
    name: "/state_encoder/conv42/aggr_module/ScatterElements_1"
    op_type: "ScatterElements"
    attribute {
      name: "axis"
      i: 0
      type: INT
    }
  }
  node {
    input: "/state_encoder/conv42/aggr_module/ConstantOfShape_2_output_0"
    input: "/state_encoder/conv42/aggr_module/ScatterElements_1_output_0"
    output: "/state_encoder/conv42/aggr_module/Add_1_output_0"
    name: "/state_encoder/conv42/aggr_module/Add_1"
    op_type: "Add"
  }
  node {
    output: "/state_encoder/conv42/aggr_module/Constant_4_output_0"
    name: "/state_encoder/conv42/aggr_module/Constant_4"
    op_type: "Constant"
    attribute {
      name: "value"
      t {
        dims: 2
        data_type: 7
        raw_data: "\377\377\377\377\377\377\377\377\001\000\000\000\000\000\000\000"
      }
      type: TENSOR
    }
  }
  node {
    input: "/state_encoder/conv42/aggr_module/Clip_output_0"
    input: "/state_encoder/conv42/aggr_module/Constant_4_output_0"
    output: "/state_encoder/conv42/aggr_module/Reshape_1_output_0"
    name: "/state_encoder/conv42/aggr_module/Reshape_1"
    op_type: "Reshape"
    attribute {
      name: "allowzero"
      i: 0
      type: INT
    }
  }
  node {
    input: "/state_encoder/conv42/aggr_module/Add_1_output_0"
    output: "/state_encoder/conv42/aggr_module/Shape_3_output_0"
    name: "/state_encoder/conv42/aggr_module/Shape_3"
    op_type: "Shape"
  }
  node {
    input: "/state_encoder/conv42/aggr_module/Reshape_1_output_0"
    input: "/state_encoder/conv42/aggr_module/Shape_3_output_0"
    output: "/state_encoder/conv42/aggr_module/Expand_1_output_0"
    name: "/state_encoder/conv42/aggr_module/Expand_1"
    op_type: "Expand"
  }
  node {
    input: "/state_encoder/conv42/aggr_module/Add_1_output_0"
    input: "/state_encoder/conv42/aggr_module/Expand_1_output_0"
    output: "/state_encoder/conv42/aggr_module/Div_output_0"
    name: "/state_encoder/conv42/aggr_module/Div"
    op_type: "Div"
  }
  node {
    input: "/state_encoder/conv42/aggr_module/Div_output_0"
    input: "state_encoder.conv42.lin_l.weight"
    input: "state_encoder.conv42.lin_l.bias"
    output: "/state_encoder/conv42/lin_l/Gemm_output_0"
    name: "/state_encoder/conv42/lin_l/Gemm"
    op_type: "Gemm"
    attribute {
      name: "alpha"
      f: 1.0
      type: FLOAT
    }
    attribute {
      name: "beta"
      f: 1.0
      type: FLOAT
    }
    attribute {
      name: "transB"
      i: 1
      type: INT
    }
  }
  node {
    input: "/state_encoder/Relu_4_output_0"
    input: "onnx::MatMul_449"
    output: "/state_encoder/conv42/lin_r/MatMul_output_0"
    name: "/state_encoder/conv42/lin_r/MatMul"
    op_type: "MatMul"
  }
  node {
    input: "/state_encoder/conv42/lin_l/Gemm_output_0"
    input: "/state_encoder/conv42/lin_r/MatMul_output_0"
    output: "/state_encoder/conv42/Add_output_0"
    name: "/state_encoder/conv42/Add"
    op_type: "Add"
  }
  node {
    input: "/state_encoder/conv42/Add_output_0"
    output: "/state_encoder/Relu_5_output_0"
    name: "/state_encoder/Relu_5"
    op_type: "Relu"
  }
  node {
    input: "/state_encoder/Relu_5_output_0"
    input: "state_encoder.lin.weight"
    input: "state_encoder.lin.bias"
    output: "/state_encoder/lin/Gemm_output_0"
    name: "/state_encoder/lin/Gemm"
    op_type: "Gemm"
    attribute {
      name: "alpha"
      f: 1.0
      type: FLOAT
    }
    attribute {
      name: "beta"
      f: 1.0
      type: FLOAT
    }
    attribute {
      name: "transB"
      i: 1
      type: INT
    }
  }
  node {
    input: "/state_encoder/lin/Gemm_output_0"
    input: "state_encoder.lin_last.weight"
    input: "state_encoder.lin_last.bias"
    output: "out"
    name: "/state_encoder/lin_last/Gemm"
    op_type: "Gemm"
    attribute {
      name: "alpha"
      f: 1.0
      type: FLOAT
    }
    attribute {
      name: "beta"
      f: 1.0
      type: FLOAT
    }
    attribute {
      name: "transB"
      i: 1
      type: INT
    }
  }
  node {
    input: "x_dict"
    output: "other_out"
    name: "Identity_372"
    op_type: "Identity"
  }
  name: "torch_jit"
  initializer {
    dims: 32
    data_type: 1
    name: "state_encoder.conv1.bias"
    raw_data: "…"
  }
  initializer {
    dims: 32
    dims: 32
    data_type: 1
    name: "state_encoder.conv3.lin_rel.weight"
    raw_data: "…"
  }
  initializer {
    dims: 32
    data_type: 1
    name: "state_encoder.conv3.lin_rel.bias"
    raw_data: "…"
  }
  initializer {
    dims: 32
    dims: 32
    data_type: 1
    name: "state_encoder.conv32.lin_rel.weight"
    raw_data: "…"
  }
  initializer {
    dims: 32
    data_type: 1
    name: "state_encoder.conv32.lin_rel.bias"
    raw_data: "…"
  }
  initializer {
    dims: 32
    dims: 32
    data_type: 1
    name: "state_encoder.conv4.lin_l.weight"
    raw_data: "…"
  }
  initializer {
    dims: 32
    data_type: 1
    name: "state_encoder.conv4.lin_l.bias"
    raw_data: "…"
  }
  initializer {
    dims: 32
    dims: 32
    data_type: 1
    name: "state_encoder.conv42.lin_l.weight"
    raw_data: "…"
  }
  initializer {
    dims: 32
    data_type: 1
    name: "state_encoder.conv42.lin_l.bias"
    raw_data: "…"
  }
  initializer {
    dims: 8
    dims: 32
    data_type: 1
    name: "state_encoder.lin.weight"
    raw_data: "…"
  }
  initializer {
    dims: 8
    data_type: 1
    name: "state_encoder.lin.bias"
    raw_data: "…"
  }
  initializer {
    dims: 1
    dims: 8
    data_type: 1
    name: "state_encoder.lin_last.weight"
    raw_data: "\370\361\214\276\034O\000>\300u\006>\030<\r\275Z\204i>\242;h>\352X\213\276B\302\231\276"
  }
  initializer {
    dims: 1
    data_type: 1
    name: "state_encoder.lin_last.bias"
    raw_data: "L\275\241="
  }
  initializer {
    dims: 5
    dims: 32
    data_type: 1
    name: "onnx::MatMul_430"
    raw_data: "…"
  }
  initializer {
    dims: 5
    dims: 32
    data_type: 1
    name: "onnx::MatMul_431"
    raw_data: "…"
  }
  initializer {
    dims: 5
    dims: 32
    data_type: 1
    name: "onnx::MatMul_432"
    raw_data: "…"
  }
  initializer {
    dims: 6
    dims: 32
    data_type: 1
    name: "onnx::MatMul_434"
    raw_data: "…"
  }
  initializer {
    dims: 6
    dims: 32
    data_type: 1
    name: "onnx::MatMul_435"
    raw_data: "…"
  }
  initializer {
    dims: 6
    dims: 32
    data_type: 1
    name: "onnx::MatMul_436"
    raw_data: "…"
  }
  initializer {
    dims: 6
    dims: 32
    data_type: 1
    name: "onnx::MatMul_437"
    raw_data: "…"
  }
  initializer {
    dims: 32
    dims: 32
    data_type: 1
    name: "onnx::MatMul_439"
    raw_data: "…"
  }
  initializer {
    dims: 32
    dims: 32
    data_type: 1
    name: "onnx::MatMul_441"
    raw_data: "…"
  }
  initializer {
    dims: 32
    dims: 32
    data_type: 1
    name: "onnx::MatMul_445"
    raw_data: "…"
  }
  initializer {
    dims: 32
    dims: 32
    data_type: 1
    name: "onnx::MatMul_449"
    raw_data: "…"
  }
  input {
    name: "x_dict"
    type {
      tensor_type {
        elem_type: 1
        shape {
          dim {
            dim_param: "x_dict_dynamic_axes_1"
          }
          dim {
            dim_param: "x_dict_dynamic_axes_2"
          }
        }
      }
    }
  }
  input {
    name: "edge_index_dict"
    type {
      tensor_type {
        elem_type: 1
        shape {
          dim {
            dim_param: "edge_index_dict_dynamic_axes_1"
          }
          dim {
            dim_param: "edge_index_dict_dynamic_axes_2"
          }
        }
      }
    }
  }
  input {
    name: "edge_attr_dict"
    type {
      tensor_type {
        elem_type: 7
        shape {
          dim {
            dim_param: "edge_attr_dict_dynamic_axes_1"
          }
          dim {
            dim_param: "edge_attr_dict_dynamic_axes_2"
          }
        }
      }
    }
  }
  input {
    name: "edge_index"
    type {
      tensor_type {
        elem_type: 7
        shape {
          dim {
            dim_value: 2
          }
          dim {
            dim_value: 1
          }
        }
      }
    }
  }
  input {
    name: "edge_index.5"
    type {
      tensor_type {
        elem_type: 7
        shape {
          dim {
            dim_value: 2
          }
          dim {
            dim_value: 1
          }
        }
      }
    }
  }
  input {
    name: "edge_index.3"
    type {
      tensor_type {
        elem_type: 7
        shape {
          dim {
            dim_value: 2
          }
          dim {
            dim_value: 0
          }
        }
      }
    }
  }
  input {
    name: "onnx::Reshape_9"
    type {
      tensor_type {
        elem_type: 7
        shape {
          dim {
            dim_value: 1
          }
          dim {
            dim_value: 1
          }
        }
      }
    }
  }
  output {
    name: "out"
    type {
      tensor_type {
        elem_type: 1
        shape {
          dim {
            dim_param: "Gemmout_dim_0"
          }
          dim {
            dim_value: 1
          }
        }
      }
    }
  }
  output {
    name: "other_out"
    type {
      tensor_type {
        elem_type: 1
        shape {
          dim {
            dim_param: "x_dict_dynamic_axes_1"
          }
          dim {
            dim_param: "x_dict_dynamic_axes_2"
          }
        }
      }
    }
  }
}
opset_import {
  version: 14
}
